[2022-02-09 16:34:26,965][base_learner.py][line: 333][    INFO] [RANK0]: DI-engine DRL Policy
DQNRLModel(
  (_encoder): BEVSpeedConvEncoder(
    (_relu): ReLU()
    (_model): Sequential(
      (0): Conv2d(5, 64, kernel_size=(3, 3), stride=(2, 2))
      (1): ReLU()
      (2): Conv2d(64, 128, kernel_size=(3, 3), stride=(2, 2))
      (3): ReLU()
      (4): Conv2d(128, 256, kernel_size=(3, 3), stride=(2, 2))
      (5): ReLU()
      (6): Flatten(start_dim=1, end_dim=-1)
    )
    (_mid): Linear(in_features=2304, out_features=256, bias=True)
  )
  (_head): DuelingHead(
    (A): Sequential(
      (0): Sequential(
        (0): Linear(in_features=512, out_features=512, bias=True)
        (1): ReLU()
      )
      (1): Sequential(
        (0): Linear(in_features=512, out_features=21, bias=True)
      )
    )
    (V): Sequential(
      (0): Sequential(
        (0): Linear(in_features=512, out_features=512, bias=True)
        (1): ReLU()
      )
      (1): Sequential(
        (0): Linear(in_features=512, out_features=1, bias=True)
      )
    )
  )
)
[2022-02-09 16:34:50,907][base_learner.py][line: 333][    INFO] [RANK0]: DI-engine DRL Policy
DQNRLModel(
  (_encoder): BEVSpeedConvEncoder(
    (_relu): ReLU()
    (_model): Sequential(
      (0): Conv2d(5, 64, kernel_size=(3, 3), stride=(2, 2))
      (1): ReLU()
      (2): Conv2d(64, 128, kernel_size=(3, 3), stride=(2, 2))
      (3): ReLU()
      (4): Conv2d(128, 256, kernel_size=(3, 3), stride=(2, 2))
      (5): ReLU()
      (6): Flatten(start_dim=1, end_dim=-1)
    )
    (_mid): Linear(in_features=2304, out_features=256, bias=True)
  )
  (_head): DuelingHead(
    (A): Sequential(
      (0): Sequential(
        (0): Linear(in_features=512, out_features=512, bias=True)
        (1): ReLU()
      )
      (1): Sequential(
        (0): Linear(in_features=512, out_features=21, bias=True)
      )
    )
    (V): Sequential(
      (0): Sequential(
        (0): Linear(in_features=512, out_features=512, bias=True)
        (1): ReLU()
      )
      (1): Sequential(
        (0): Linear(in_features=512, out_features=1, bias=True)
      )
    )
  )
)
[2022-02-09 16:52:18,779][base_learner.py][line: 333][    INFO] [RANK0]: DI-engine DRL Policy
DQNRLModel(
  (_encoder): BEVSpeedConvEncoder(
    (_relu): ReLU()
    (_model): Sequential(
      (0): Conv2d(5, 64, kernel_size=(3, 3), stride=(2, 2))
      (1): ReLU()
      (2): Conv2d(64, 128, kernel_size=(3, 3), stride=(2, 2))
      (3): ReLU()
      (4): Conv2d(128, 256, kernel_size=(3, 3), stride=(2, 2))
      (5): ReLU()
      (6): Flatten(start_dim=1, end_dim=-1)
    )
    (_mid): Linear(in_features=2304, out_features=256, bias=True)
  )
  (_head): DuelingHead(
    (A): Sequential(
      (0): Sequential(
        (0): Linear(in_features=512, out_features=512, bias=True)
        (1): ReLU()
      )
      (1): Sequential(
        (0): Linear(in_features=512, out_features=21, bias=True)
      )
    )
    (V): Sequential(
      (0): Sequential(
        (0): Linear(in_features=512, out_features=512, bias=True)
        (1): ReLU()
      )
      (1): Sequential(
        (0): Linear(in_features=512, out_features=1, bias=True)
      )
    )
  )
)
[2022-02-09 17:18:43,952][base_learner.py][line: 333][    INFO] [RANK0]: DI-engine DRL Policy
DQNRLModel(
  (_encoder): BEVSpeedConvEncoder(
    (_relu): ReLU()
    (_model): Sequential(
      (0): Conv2d(5, 64, kernel_size=(3, 3), stride=(2, 2))
      (1): ReLU()
      (2): Conv2d(64, 128, kernel_size=(3, 3), stride=(2, 2))
      (3): ReLU()
      (4): Conv2d(128, 256, kernel_size=(3, 3), stride=(2, 2))
      (5): ReLU()
      (6): Flatten(start_dim=1, end_dim=-1)
    )
    (_mid): Linear(in_features=2304, out_features=256, bias=True)
  )
  (_head): DuelingHead(
    (A): Sequential(
      (0): Sequential(
        (0): Linear(in_features=512, out_features=512, bias=True)
        (1): ReLU()
      )
      (1): Sequential(
        (0): Linear(in_features=512, out_features=21, bias=True)
      )
    )
    (V): Sequential(
      (0): Sequential(
        (0): Linear(in_features=512, out_features=512, bias=True)
        (1): ReLU()
      )
      (1): Sequential(
        (0): Linear(in_features=512, out_features=1, bias=True)
      )
    )
  )
)
[2022-02-09 17:20:36,707][base_learner.py][line: 333][    INFO] [RANK0]: DI-engine DRL Policy
DQNRLModel(
  (_encoder): BEVSpeedConvEncoder(
    (_relu): ReLU()
    (_model): Sequential(
      (0): Conv2d(5, 64, kernel_size=(3, 3), stride=(2, 2))
      (1): ReLU()
      (2): Conv2d(64, 128, kernel_size=(3, 3), stride=(2, 2))
      (3): ReLU()
      (4): Conv2d(128, 256, kernel_size=(3, 3), stride=(2, 2))
      (5): ReLU()
      (6): Flatten(start_dim=1, end_dim=-1)
    )
    (_mid): Linear(in_features=2304, out_features=256, bias=True)
  )
  (_head): DuelingHead(
    (A): Sequential(
      (0): Sequential(
        (0): Linear(in_features=512, out_features=512, bias=True)
        (1): ReLU()
      )
      (1): Sequential(
        (0): Linear(in_features=512, out_features=21, bias=True)
      )
    )
    (V): Sequential(
      (0): Sequential(
        (0): Linear(in_features=512, out_features=512, bias=True)
        (1): ReLU()
      )
      (1): Sequential(
        (0): Linear(in_features=512, out_features=1, bias=True)
      )
    )
  )
)
[2022-02-09 17:22:20,914][base_learner.py][line: 333][    INFO] [RANK0]: DI-engine DRL Policy
DQNRLModel(
  (_encoder): BEVSpeedConvEncoder(
    (_relu): ReLU()
    (_model): Sequential(
      (0): Conv2d(5, 64, kernel_size=(3, 3), stride=(2, 2))
      (1): ReLU()
      (2): Conv2d(64, 128, kernel_size=(3, 3), stride=(2, 2))
      (3): ReLU()
      (4): Conv2d(128, 256, kernel_size=(3, 3), stride=(2, 2))
      (5): ReLU()
      (6): Flatten(start_dim=1, end_dim=-1)
    )
    (_mid): Linear(in_features=2304, out_features=256, bias=True)
  )
  (_head): DuelingHead(
    (A): Sequential(
      (0): Sequential(
        (0): Linear(in_features=512, out_features=512, bias=True)
        (1): ReLU()
      )
      (1): Sequential(
        (0): Linear(in_features=512, out_features=21, bias=True)
      )
    )
    (V): Sequential(
      (0): Sequential(
        (0): Linear(in_features=512, out_features=512, bias=True)
        (1): ReLU()
      )
      (1): Sequential(
        (0): Linear(in_features=512, out_features=1, bias=True)
      )
    )
  )
)
[2022-02-09 17:33:37,297][base_learner.py][line: 333][    INFO] [RANK0]: DI-engine DRL Policy
DQNRLModel(
  (_encoder): BEVSpeedConvEncoder(
    (_relu): ReLU()
    (_model): Sequential(
      (0): Conv2d(5, 64, kernel_size=(3, 3), stride=(2, 2))
      (1): ReLU()
      (2): Conv2d(64, 128, kernel_size=(3, 3), stride=(2, 2))
      (3): ReLU()
      (4): Conv2d(128, 256, kernel_size=(3, 3), stride=(2, 2))
      (5): ReLU()
      (6): Flatten(start_dim=1, end_dim=-1)
    )
    (_mid): Linear(in_features=2304, out_features=256, bias=True)
  )
  (_head): DuelingHead(
    (A): Sequential(
      (0): Sequential(
        (0): Linear(in_features=512, out_features=512, bias=True)
        (1): ReLU()
      )
      (1): Sequential(
        (0): Linear(in_features=512, out_features=21, bias=True)
      )
    )
    (V): Sequential(
      (0): Sequential(
        (0): Linear(in_features=512, out_features=512, bias=True)
        (1): ReLU()
      )
      (1): Sequential(
        (0): Linear(in_features=512, out_features=1, bias=True)
      )
    )
  )
)
[2022-02-14 13:13:09,924][base_learner.py][line: 333][    INFO] [RANK0]: DI-engine DRL Policy
DQNRLModel(
  (_encoder): BEVSpeedConvEncoder(
    (_relu): ReLU()
    (_model): Sequential(
      (0): Conv2d(5, 64, kernel_size=(3, 3), stride=(2, 2))
      (1): ReLU()
      (2): Conv2d(64, 128, kernel_size=(3, 3), stride=(2, 2))
      (3): ReLU()
      (4): Conv2d(128, 256, kernel_size=(3, 3), stride=(2, 2))
      (5): ReLU()
      (6): Flatten(start_dim=1, end_dim=-1)
    )
    (_mid): Linear(in_features=2304, out_features=256, bias=True)
  )
  (_head): DuelingHead(
    (A): Sequential(
      (0): Sequential(
        (0): Linear(in_features=512, out_features=512, bias=True)
        (1): ReLU()
      )
      (1): Sequential(
        (0): Linear(in_features=512, out_features=21, bias=True)
      )
    )
    (V): Sequential(
      (0): Sequential(
        (0): Linear(in_features=512, out_features=512, bias=True)
        (1): ReLU()
      )
      (1): Sequential(
        (0): Linear(in_features=512, out_features=1, bias=True)
      )
    )
  )
)
[2022-02-14 13:17:38,895][base_learner.py][line: 333][    INFO] [RANK0]: DI-engine DRL Policy
DQNRLModel(
  (_encoder): BEVSpeedConvEncoder(
    (_relu): ReLU()
    (_model): Sequential(
      (0): Conv2d(5, 64, kernel_size=(3, 3), stride=(2, 2))
      (1): ReLU()
      (2): Conv2d(64, 128, kernel_size=(3, 3), stride=(2, 2))
      (3): ReLU()
      (4): Conv2d(128, 256, kernel_size=(3, 3), stride=(2, 2))
      (5): ReLU()
      (6): Flatten(start_dim=1, end_dim=-1)
    )
    (_mid): Linear(in_features=2304, out_features=256, bias=True)
  )
  (_head): DuelingHead(
    (A): Sequential(
      (0): Sequential(
        (0): Linear(in_features=512, out_features=512, bias=True)
        (1): ReLU()
      )
      (1): Sequential(
        (0): Linear(in_features=512, out_features=21, bias=True)
      )
    )
    (V): Sequential(
      (0): Sequential(
        (0): Linear(in_features=512, out_features=512, bias=True)
        (1): ReLU()
      )
      (1): Sequential(
        (0): Linear(in_features=512, out_features=1, bias=True)
      )
    )
  )
)
[2022-03-14 15:31:04,693][base_learner.py][line: 333][    INFO] [RANK0]: DI-engine DRL Policy
DQNRLModel(
  (_encoder): BEVSpeedConvEncoder(
    (_relu): ReLU()
    (_model): Sequential(
      (0): Conv2d(5, 64, kernel_size=(3, 3), stride=(2, 2))
      (1): ReLU()
      (2): Conv2d(64, 128, kernel_size=(3, 3), stride=(2, 2))
      (3): ReLU()
      (4): Conv2d(128, 256, kernel_size=(3, 3), stride=(2, 2))
      (5): ReLU()
      (6): Flatten(start_dim=1, end_dim=-1)
    )
    (_mid): Linear(in_features=2304, out_features=256, bias=True)
  )
  (_head): DuelingHead(
    (A): Sequential(
      (0): Sequential(
        (0): Linear(in_features=512, out_features=512, bias=True)
        (1): ReLU()
      )
      (1): Sequential(
        (0): Linear(in_features=512, out_features=21, bias=True)
      )
    )
    (V): Sequential(
      (0): Sequential(
        (0): Linear(in_features=512, out_features=512, bias=True)
        (1): ReLU()
      )
      (1): Sequential(
        (0): Linear(in_features=512, out_features=1, bias=True)
      )
    )
  )
)
[2022-03-14 16:36:29,707][base_learner.py][line: 333][    INFO] [RANK0]: DI-engine DRL Policy
DQNRLModel(
  (_encoder): BEVSpeedConvEncoder(
    (_relu): ReLU()
    (_model): Sequential(
      (0): Conv2d(5, 64, kernel_size=(3, 3), stride=(2, 2))
      (1): ReLU()
      (2): Conv2d(64, 128, kernel_size=(3, 3), stride=(2, 2))
      (3): ReLU()
      (4): Conv2d(128, 256, kernel_size=(3, 3), stride=(2, 2))
      (5): ReLU()
      (6): Flatten(start_dim=1, end_dim=-1)
    )
    (_mid): Linear(in_features=2304, out_features=256, bias=True)
  )
  (_head): DuelingHead(
    (A): Sequential(
      (0): Sequential(
        (0): Linear(in_features=512, out_features=512, bias=True)
        (1): ReLU()
      )
      (1): Sequential(
        (0): Linear(in_features=512, out_features=21, bias=True)
      )
    )
    (V): Sequential(
      (0): Sequential(
        (0): Linear(in_features=512, out_features=512, bias=True)
        (1): ReLU()
      )
      (1): Sequential(
        (0): Linear(in_features=512, out_features=1, bias=True)
      )
    )
  )
)
[2022-03-14 16:38:03,506][base_learner.py][line: 333][    INFO] [RANK0]: DI-engine DRL Policy
DQNRLModel(
  (_encoder): BEVSpeedConvEncoder(
    (_relu): ReLU()
    (_model): Sequential(
      (0): Conv2d(5, 64, kernel_size=(3, 3), stride=(2, 2))
      (1): ReLU()
      (2): Conv2d(64, 128, kernel_size=(3, 3), stride=(2, 2))
      (3): ReLU()
      (4): Conv2d(128, 256, kernel_size=(3, 3), stride=(2, 2))
      (5): ReLU()
      (6): Flatten(start_dim=1, end_dim=-1)
    )
    (_mid): Linear(in_features=2304, out_features=256, bias=True)
  )
  (_head): DuelingHead(
    (A): Sequential(
      (0): Sequential(
        (0): Linear(in_features=512, out_features=512, bias=True)
        (1): ReLU()
      )
      (1): Sequential(
        (0): Linear(in_features=512, out_features=21, bias=True)
      )
    )
    (V): Sequential(
      (0): Sequential(
        (0): Linear(in_features=512, out_features=512, bias=True)
        (1): ReLU()
      )
      (1): Sequential(
        (0): Linear(in_features=512, out_features=1, bias=True)
      )
    )
  )
)
[2022-03-14 16:39:50,724][base_learner.py][line: 333][    INFO] [RANK0]: DI-engine DRL Policy
DQNRLModel(
  (_encoder): BEVSpeedConvEncoder(
    (_relu): ReLU()
    (_model): Sequential(
      (0): Conv2d(5, 64, kernel_size=(3, 3), stride=(2, 2))
      (1): ReLU()
      (2): Conv2d(64, 128, kernel_size=(3, 3), stride=(2, 2))
      (3): ReLU()
      (4): Conv2d(128, 256, kernel_size=(3, 3), stride=(2, 2))
      (5): ReLU()
      (6): Flatten(start_dim=1, end_dim=-1)
    )
    (_mid): Linear(in_features=2304, out_features=256, bias=True)
  )
  (_head): DuelingHead(
    (A): Sequential(
      (0): Sequential(
        (0): Linear(in_features=512, out_features=512, bias=True)
        (1): ReLU()
      )
      (1): Sequential(
        (0): Linear(in_features=512, out_features=21, bias=True)
      )
    )
    (V): Sequential(
      (0): Sequential(
        (0): Linear(in_features=512, out_features=512, bias=True)
        (1): ReLU()
      )
      (1): Sequential(
        (0): Linear(in_features=512, out_features=1, bias=True)
      )
    )
  )
)
[2022-03-14 16:47:30,458][base_learner.py][line: 333][    INFO] [RANK0]: DI-engine DRL Policy
DQNRLModel(
  (_encoder): BEVSpeedConvEncoder(
    (_relu): ReLU()
    (_model): Sequential(
      (0): Conv2d(5, 64, kernel_size=(3, 3), stride=(2, 2))
      (1): ReLU()
      (2): Conv2d(64, 128, kernel_size=(3, 3), stride=(2, 2))
      (3): ReLU()
      (4): Conv2d(128, 256, kernel_size=(3, 3), stride=(2, 2))
      (5): ReLU()
      (6): Flatten(start_dim=1, end_dim=-1)
    )
    (_mid): Linear(in_features=2304, out_features=256, bias=True)
  )
  (_head): DuelingHead(
    (A): Sequential(
      (0): Sequential(
        (0): Linear(in_features=512, out_features=512, bias=True)
        (1): ReLU()
      )
      (1): Sequential(
        (0): Linear(in_features=512, out_features=21, bias=True)
      )
    )
    (V): Sequential(
      (0): Sequential(
        (0): Linear(in_features=512, out_features=512, bias=True)
        (1): ReLU()
      )
      (1): Sequential(
        (0): Linear(in_features=512, out_features=1, bias=True)
      )
    )
  )
)
[2022-03-14 16:49:59,300][base_learner.py][line: 333][    INFO] [RANK0]: DI-engine DRL Policy
DQNRLModel(
  (_encoder): BEVSpeedConvEncoder(
    (_relu): ReLU()
    (_model): Sequential(
      (0): Conv2d(5, 64, kernel_size=(3, 3), stride=(2, 2))
      (1): ReLU()
      (2): Conv2d(64, 128, kernel_size=(3, 3), stride=(2, 2))
      (3): ReLU()
      (4): Conv2d(128, 256, kernel_size=(3, 3), stride=(2, 2))
      (5): ReLU()
      (6): Flatten(start_dim=1, end_dim=-1)
    )
    (_mid): Linear(in_features=2304, out_features=256, bias=True)
  )
  (_head): DuelingHead(
    (A): Sequential(
      (0): Sequential(
        (0): Linear(in_features=512, out_features=512, bias=True)
        (1): ReLU()
      )
      (1): Sequential(
        (0): Linear(in_features=512, out_features=21, bias=True)
      )
    )
    (V): Sequential(
      (0): Sequential(
        (0): Linear(in_features=512, out_features=512, bias=True)
        (1): ReLU()
      )
      (1): Sequential(
        (0): Linear(in_features=512, out_features=1, bias=True)
      )
    )
  )
)
[2022-03-14 16:50:42,840][base_learner.py][line: 333][    INFO] [RANK0]: DI-engine DRL Policy
DQNRLModel(
  (_encoder): BEVSpeedConvEncoder(
    (_relu): ReLU()
    (_model): Sequential(
      (0): Conv2d(5, 64, kernel_size=(3, 3), stride=(2, 2))
      (1): ReLU()
      (2): Conv2d(64, 128, kernel_size=(3, 3), stride=(2, 2))
      (3): ReLU()
      (4): Conv2d(128, 256, kernel_size=(3, 3), stride=(2, 2))
      (5): ReLU()
      (6): Flatten(start_dim=1, end_dim=-1)
    )
    (_mid): Linear(in_features=2304, out_features=256, bias=True)
  )
  (_head): DuelingHead(
    (A): Sequential(
      (0): Sequential(
        (0): Linear(in_features=512, out_features=512, bias=True)
        (1): ReLU()
      )
      (1): Sequential(
        (0): Linear(in_features=512, out_features=21, bias=True)
      )
    )
    (V): Sequential(
      (0): Sequential(
        (0): Linear(in_features=512, out_features=512, bias=True)
        (1): ReLU()
      )
      (1): Sequential(
        (0): Linear(in_features=512, out_features=1, bias=True)
      )
    )
  )
)
[2022-03-14 17:04:23,791][base_learner.py][line: 333][    INFO] [RANK0]: DI-engine DRL Policy
DQNRLModel(
  (_encoder): BEVSpeedConvEncoder(
    (_relu): ReLU()
    (_model): Sequential(
      (0): Conv2d(5, 64, kernel_size=(3, 3), stride=(2, 2))
      (1): ReLU()
      (2): Conv2d(64, 128, kernel_size=(3, 3), stride=(2, 2))
      (3): ReLU()
      (4): Conv2d(128, 256, kernel_size=(3, 3), stride=(2, 2))
      (5): ReLU()
      (6): Flatten(start_dim=1, end_dim=-1)
    )
    (_mid): Linear(in_features=2304, out_features=256, bias=True)
  )
  (_head): DuelingHead(
    (A): Sequential(
      (0): Sequential(
        (0): Linear(in_features=512, out_features=512, bias=True)
        (1): ReLU()
      )
      (1): Sequential(
        (0): Linear(in_features=512, out_features=21, bias=True)
      )
    )
    (V): Sequential(
      (0): Sequential(
        (0): Linear(in_features=512, out_features=512, bias=True)
        (1): ReLU()
      )
      (1): Sequential(
        (0): Linear(in_features=512, out_features=1, bias=True)
      )
    )
  )
)
[2022-03-14 17:48:48,231][base_learner.py][line: 333][    INFO] [RANK0]: DI-engine DRL Policy
DQNRLModel(
  (_encoder): BEVSpeedConvEncoder(
    (_relu): ReLU()
    (_model): Sequential(
      (0): Conv2d(5, 64, kernel_size=(3, 3), stride=(2, 2))
      (1): ReLU()
      (2): Conv2d(64, 128, kernel_size=(3, 3), stride=(2, 2))
      (3): ReLU()
      (4): Conv2d(128, 256, kernel_size=(3, 3), stride=(2, 2))
      (5): ReLU()
      (6): Flatten(start_dim=1, end_dim=-1)
    )
    (_mid): Linear(in_features=2304, out_features=256, bias=True)
  )
  (_head): DuelingHead(
    (A): Sequential(
      (0): Sequential(
        (0): Linear(in_features=512, out_features=512, bias=True)
        (1): ReLU()
      )
      (1): Sequential(
        (0): Linear(in_features=512, out_features=21, bias=True)
      )
    )
    (V): Sequential(
      (0): Sequential(
        (0): Linear(in_features=512, out_features=512, bias=True)
        (1): ReLU()
      )
      (1): Sequential(
        (0): Linear(in_features=512, out_features=1, bias=True)
      )
    )
  )
)
[2022-03-14 17:50:05,303][base_learner.py][line: 333][    INFO] [RANK0]: DI-engine DRL Policy
DQNRLModel(
  (_encoder): BEVSpeedConvEncoder(
    (_relu): ReLU()
    (_model): Sequential(
      (0): Conv2d(5, 64, kernel_size=(3, 3), stride=(2, 2))
      (1): ReLU()
      (2): Conv2d(64, 128, kernel_size=(3, 3), stride=(2, 2))
      (3): ReLU()
      (4): Conv2d(128, 256, kernel_size=(3, 3), stride=(2, 2))
      (5): ReLU()
      (6): Flatten(start_dim=1, end_dim=-1)
    )
    (_mid): Linear(in_features=2304, out_features=256, bias=True)
  )
  (_head): DuelingHead(
    (A): Sequential(
      (0): Sequential(
        (0): Linear(in_features=512, out_features=512, bias=True)
        (1): ReLU()
      )
      (1): Sequential(
        (0): Linear(in_features=512, out_features=21, bias=True)
      )
    )
    (V): Sequential(
      (0): Sequential(
        (0): Linear(in_features=512, out_features=512, bias=True)
        (1): ReLU()
      )
      (1): Sequential(
        (0): Linear(in_features=512, out_features=1, bias=True)
      )
    )
  )
)
[2022-03-14 17:56:17,072][base_learner.py][line: 333][    INFO] [RANK0]: DI-engine DRL Policy
DQNRLModel(
  (_encoder): BEVSpeedConvEncoder(
    (_relu): ReLU()
    (_model): Sequential(
      (0): Conv2d(5, 64, kernel_size=(3, 3), stride=(2, 2))
      (1): ReLU()
      (2): Conv2d(64, 128, kernel_size=(3, 3), stride=(2, 2))
      (3): ReLU()
      (4): Conv2d(128, 256, kernel_size=(3, 3), stride=(2, 2))
      (5): ReLU()
      (6): Flatten(start_dim=1, end_dim=-1)
    )
    (_mid): Linear(in_features=2304, out_features=256, bias=True)
  )
  (_head): DuelingHead(
    (A): Sequential(
      (0): Sequential(
        (0): Linear(in_features=512, out_features=512, bias=True)
        (1): ReLU()
      )
      (1): Sequential(
        (0): Linear(in_features=512, out_features=21, bias=True)
      )
    )
    (V): Sequential(
      (0): Sequential(
        (0): Linear(in_features=512, out_features=512, bias=True)
        (1): ReLU()
      )
      (1): Sequential(
        (0): Linear(in_features=512, out_features=1, bias=True)
      )
    )
  )
)
[2022-03-14 17:58:19,289][base_learner.py][line: 333][    INFO] [RANK0]: DI-engine DRL Policy
DQNRLModel(
  (_encoder): BEVSpeedConvEncoder(
    (_relu): ReLU()
    (_model): Sequential(
      (0): Conv2d(5, 64, kernel_size=(3, 3), stride=(2, 2))
      (1): ReLU()
      (2): Conv2d(64, 128, kernel_size=(3, 3), stride=(2, 2))
      (3): ReLU()
      (4): Conv2d(128, 256, kernel_size=(3, 3), stride=(2, 2))
      (5): ReLU()
      (6): Flatten(start_dim=1, end_dim=-1)
    )
    (_mid): Linear(in_features=2304, out_features=256, bias=True)
  )
  (_head): DuelingHead(
    (A): Sequential(
      (0): Sequential(
        (0): Linear(in_features=512, out_features=512, bias=True)
        (1): ReLU()
      )
      (1): Sequential(
        (0): Linear(in_features=512, out_features=21, bias=True)
      )
    )
    (V): Sequential(
      (0): Sequential(
        (0): Linear(in_features=512, out_features=512, bias=True)
        (1): ReLU()
      )
      (1): Sequential(
        (0): Linear(in_features=512, out_features=1, bias=True)
      )
    )
  )
)
[2022-03-14 18:00:27,046][base_learner.py][line: 333][    INFO] [RANK0]: DI-engine DRL Policy
DQNRLModel(
  (_encoder): BEVSpeedConvEncoder(
    (_relu): ReLU()
    (_model): Sequential(
      (0): Conv2d(5, 64, kernel_size=(3, 3), stride=(2, 2))
      (1): ReLU()
      (2): Conv2d(64, 128, kernel_size=(3, 3), stride=(2, 2))
      (3): ReLU()
      (4): Conv2d(128, 256, kernel_size=(3, 3), stride=(2, 2))
      (5): ReLU()
      (6): Flatten(start_dim=1, end_dim=-1)
    )
    (_mid): Linear(in_features=2304, out_features=256, bias=True)
  )
  (_head): DuelingHead(
    (A): Sequential(
      (0): Sequential(
        (0): Linear(in_features=512, out_features=512, bias=True)
        (1): ReLU()
      )
      (1): Sequential(
        (0): Linear(in_features=512, out_features=21, bias=True)
      )
    )
    (V): Sequential(
      (0): Sequential(
        (0): Linear(in_features=512, out_features=512, bias=True)
        (1): ReLU()
      )
      (1): Sequential(
        (0): Linear(in_features=512, out_features=1, bias=True)
      )
    )
  )
)
[2022-03-14 18:01:34,684][base_learner.py][line: 333][    INFO] [RANK0]: DI-engine DRL Policy
DQNRLModel(
  (_encoder): BEVSpeedConvEncoder(
    (_relu): ReLU()
    (_model): Sequential(
      (0): Conv2d(5, 64, kernel_size=(3, 3), stride=(2, 2))
      (1): ReLU()
      (2): Conv2d(64, 128, kernel_size=(3, 3), stride=(2, 2))
      (3): ReLU()
      (4): Conv2d(128, 256, kernel_size=(3, 3), stride=(2, 2))
      (5): ReLU()
      (6): Flatten(start_dim=1, end_dim=-1)
    )
    (_mid): Linear(in_features=2304, out_features=256, bias=True)
  )
  (_head): DuelingHead(
    (A): Sequential(
      (0): Sequential(
        (0): Linear(in_features=512, out_features=512, bias=True)
        (1): ReLU()
      )
      (1): Sequential(
        (0): Linear(in_features=512, out_features=21, bias=True)
      )
    )
    (V): Sequential(
      (0): Sequential(
        (0): Linear(in_features=512, out_features=512, bias=True)
        (1): ReLU()
      )
      (1): Sequential(
        (0): Linear(in_features=512, out_features=1, bias=True)
      )
    )
  )
)
[2022-03-14 18:28:47,711][base_learner.py][line: 333][    INFO] [RANK0]: DI-engine DRL Policy
DQNRLModel(
  (_encoder): BEVSpeedConvEncoder(
    (_relu): ReLU()
    (_model): Sequential(
      (0): Conv2d(5, 64, kernel_size=(3, 3), stride=(2, 2))
      (1): ReLU()
      (2): Conv2d(64, 128, kernel_size=(3, 3), stride=(2, 2))
      (3): ReLU()
      (4): Conv2d(128, 256, kernel_size=(3, 3), stride=(2, 2))
      (5): ReLU()
      (6): Flatten(start_dim=1, end_dim=-1)
    )
    (_mid): Linear(in_features=2304, out_features=256, bias=True)
  )
  (_head): DuelingHead(
    (A): Sequential(
      (0): Sequential(
        (0): Linear(in_features=512, out_features=512, bias=True)
        (1): ReLU()
      )
      (1): Sequential(
        (0): Linear(in_features=512, out_features=21, bias=True)
      )
    )
    (V): Sequential(
      (0): Sequential(
        (0): Linear(in_features=512, out_features=512, bias=True)
        (1): ReLU()
      )
      (1): Sequential(
        (0): Linear(in_features=512, out_features=1, bias=True)
      )
    )
  )
)
[2022-03-14 18:29:20,159][base_learner.py][line: 333][    INFO] [RANK0]: DI-engine DRL Policy
DQNRLModel(
  (_encoder): BEVSpeedConvEncoder(
    (_relu): ReLU()
    (_model): Sequential(
      (0): Conv2d(5, 64, kernel_size=(3, 3), stride=(2, 2))
      (1): ReLU()
      (2): Conv2d(64, 128, kernel_size=(3, 3), stride=(2, 2))
      (3): ReLU()
      (4): Conv2d(128, 256, kernel_size=(3, 3), stride=(2, 2))
      (5): ReLU()
      (6): Flatten(start_dim=1, end_dim=-1)
    )
    (_mid): Linear(in_features=2304, out_features=256, bias=True)
  )
  (_head): DuelingHead(
    (A): Sequential(
      (0): Sequential(
        (0): Linear(in_features=512, out_features=512, bias=True)
        (1): ReLU()
      )
      (1): Sequential(
        (0): Linear(in_features=512, out_features=21, bias=True)
      )
    )
    (V): Sequential(
      (0): Sequential(
        (0): Linear(in_features=512, out_features=512, bias=True)
        (1): ReLU()
      )
      (1): Sequential(
        (0): Linear(in_features=512, out_features=1, bias=True)
      )
    )
  )
)
[2022-03-14 18:30:26,725][base_learner.py][line: 333][    INFO] [RANK0]: DI-engine DRL Policy
DQNRLModel(
  (_encoder): BEVSpeedConvEncoder(
    (_relu): ReLU()
    (_model): Sequential(
      (0): Conv2d(5, 64, kernel_size=(3, 3), stride=(2, 2))
      (1): ReLU()
      (2): Conv2d(64, 128, kernel_size=(3, 3), stride=(2, 2))
      (3): ReLU()
      (4): Conv2d(128, 256, kernel_size=(3, 3), stride=(2, 2))
      (5): ReLU()
      (6): Flatten(start_dim=1, end_dim=-1)
    )
    (_mid): Linear(in_features=2304, out_features=256, bias=True)
  )
  (_head): DuelingHead(
    (A): Sequential(
      (0): Sequential(
        (0): Linear(in_features=512, out_features=512, bias=True)
        (1): ReLU()
      )
      (1): Sequential(
        (0): Linear(in_features=512, out_features=21, bias=True)
      )
    )
    (V): Sequential(
      (0): Sequential(
        (0): Linear(in_features=512, out_features=512, bias=True)
        (1): ReLU()
      )
      (1): Sequential(
        (0): Linear(in_features=512, out_features=1, bias=True)
      )
    )
  )
)
[2022-03-14 18:31:30,219][base_learner.py][line: 333][    INFO] [RANK0]: DI-engine DRL Policy
DQNRLModel(
  (_encoder): BEVSpeedConvEncoder(
    (_relu): ReLU()
    (_model): Sequential(
      (0): Conv2d(5, 64, kernel_size=(3, 3), stride=(2, 2))
      (1): ReLU()
      (2): Conv2d(64, 128, kernel_size=(3, 3), stride=(2, 2))
      (3): ReLU()
      (4): Conv2d(128, 256, kernel_size=(3, 3), stride=(2, 2))
      (5): ReLU()
      (6): Flatten(start_dim=1, end_dim=-1)
    )
    (_mid): Linear(in_features=2304, out_features=256, bias=True)
  )
  (_head): DuelingHead(
    (A): Sequential(
      (0): Sequential(
        (0): Linear(in_features=512, out_features=512, bias=True)
        (1): ReLU()
      )
      (1): Sequential(
        (0): Linear(in_features=512, out_features=21, bias=True)
      )
    )
    (V): Sequential(
      (0): Sequential(
        (0): Linear(in_features=512, out_features=512, bias=True)
        (1): ReLU()
      )
      (1): Sequential(
        (0): Linear(in_features=512, out_features=1, bias=True)
      )
    )
  )
)
[2022-03-14 18:31:58,526][base_learner.py][line: 333][    INFO] [RANK0]: DI-engine DRL Policy
DQNRLModel(
  (_encoder): BEVSpeedConvEncoder(
    (_relu): ReLU()
    (_model): Sequential(
      (0): Conv2d(5, 64, kernel_size=(3, 3), stride=(2, 2))
      (1): ReLU()
      (2): Conv2d(64, 128, kernel_size=(3, 3), stride=(2, 2))
      (3): ReLU()
      (4): Conv2d(128, 256, kernel_size=(3, 3), stride=(2, 2))
      (5): ReLU()
      (6): Flatten(start_dim=1, end_dim=-1)
    )
    (_mid): Linear(in_features=2304, out_features=256, bias=True)
  )
  (_head): DuelingHead(
    (A): Sequential(
      (0): Sequential(
        (0): Linear(in_features=512, out_features=512, bias=True)
        (1): ReLU()
      )
      (1): Sequential(
        (0): Linear(in_features=512, out_features=21, bias=True)
      )
    )
    (V): Sequential(
      (0): Sequential(
        (0): Linear(in_features=512, out_features=512, bias=True)
        (1): ReLU()
      )
      (1): Sequential(
        (0): Linear(in_features=512, out_features=1, bias=True)
      )
    )
  )
)
[2022-03-14 18:33:23,803][base_learner.py][line: 333][    INFO] [RANK0]: DI-engine DRL Policy
DQNRLModel(
  (_encoder): BEVSpeedConvEncoder(
    (_relu): ReLU()
    (_model): Sequential(
      (0): Conv2d(5, 64, kernel_size=(3, 3), stride=(2, 2))
      (1): ReLU()
      (2): Conv2d(64, 128, kernel_size=(3, 3), stride=(2, 2))
      (3): ReLU()
      (4): Conv2d(128, 256, kernel_size=(3, 3), stride=(2, 2))
      (5): ReLU()
      (6): Flatten(start_dim=1, end_dim=-1)
    )
    (_mid): Linear(in_features=2304, out_features=256, bias=True)
  )
  (_head): DuelingHead(
    (A): Sequential(
      (0): Sequential(
        (0): Linear(in_features=512, out_features=512, bias=True)
        (1): ReLU()
      )
      (1): Sequential(
        (0): Linear(in_features=512, out_features=21, bias=True)
      )
    )
    (V): Sequential(
      (0): Sequential(
        (0): Linear(in_features=512, out_features=512, bias=True)
        (1): ReLU()
      )
      (1): Sequential(
        (0): Linear(in_features=512, out_features=1, bias=True)
      )
    )
  )
)
[2022-03-14 18:49:44,537][base_learner.py][line: 333][    INFO] [RANK0]: DI-engine DRL Policy
DQNRLModel(
  (_encoder): BEVSpeedConvEncoder(
    (_relu): ReLU()
    (_model): Sequential(
      (0): Conv2d(5, 64, kernel_size=(3, 3), stride=(2, 2))
      (1): ReLU()
      (2): Conv2d(64, 128, kernel_size=(3, 3), stride=(2, 2))
      (3): ReLU()
      (4): Conv2d(128, 256, kernel_size=(3, 3), stride=(2, 2))
      (5): ReLU()
      (6): Flatten(start_dim=1, end_dim=-1)
    )
    (_mid): Linear(in_features=2304, out_features=256, bias=True)
  )
  (_head): DuelingHead(
    (A): Sequential(
      (0): Sequential(
        (0): Linear(in_features=512, out_features=512, bias=True)
        (1): ReLU()
      )
      (1): Sequential(
        (0): Linear(in_features=512, out_features=21, bias=True)
      )
    )
    (V): Sequential(
      (0): Sequential(
        (0): Linear(in_features=512, out_features=512, bias=True)
        (1): ReLU()
      )
      (1): Sequential(
        (0): Linear(in_features=512, out_features=1, bias=True)
      )
    )
  )
)
[2022-03-14 18:51:37,652][base_learner.py][line: 333][    INFO] [RANK0]: DI-engine DRL Policy
DQNRLModel(
  (_encoder): BEVSpeedConvEncoder(
    (_relu): ReLU()
    (_model): Sequential(
      (0): Conv2d(5, 64, kernel_size=(3, 3), stride=(2, 2))
      (1): ReLU()
      (2): Conv2d(64, 128, kernel_size=(3, 3), stride=(2, 2))
      (3): ReLU()
      (4): Conv2d(128, 256, kernel_size=(3, 3), stride=(2, 2))
      (5): ReLU()
      (6): Flatten(start_dim=1, end_dim=-1)
    )
    (_mid): Linear(in_features=2304, out_features=256, bias=True)
  )
  (_head): DuelingHead(
    (A): Sequential(
      (0): Sequential(
        (0): Linear(in_features=512, out_features=512, bias=True)
        (1): ReLU()
      )
      (1): Sequential(
        (0): Linear(in_features=512, out_features=21, bias=True)
      )
    )
    (V): Sequential(
      (0): Sequential(
        (0): Linear(in_features=512, out_features=512, bias=True)
        (1): ReLU()
      )
      (1): Sequential(
        (0): Linear(in_features=512, out_features=1, bias=True)
      )
    )
  )
)
[2022-03-14 18:53:25,289][base_learner.py][line: 333][    INFO] [RANK0]: DI-engine DRL Policy
DQNRLModel(
  (_encoder): BEVSpeedConvEncoder(
    (_relu): ReLU()
    (_model): Sequential(
      (0): Conv2d(5, 64, kernel_size=(3, 3), stride=(2, 2))
      (1): ReLU()
      (2): Conv2d(64, 128, kernel_size=(3, 3), stride=(2, 2))
      (3): ReLU()
      (4): Conv2d(128, 256, kernel_size=(3, 3), stride=(2, 2))
      (5): ReLU()
      (6): Flatten(start_dim=1, end_dim=-1)
    )
    (_mid): Linear(in_features=2304, out_features=256, bias=True)
  )
  (_head): DuelingHead(
    (A): Sequential(
      (0): Sequential(
        (0): Linear(in_features=512, out_features=512, bias=True)
        (1): ReLU()
      )
      (1): Sequential(
        (0): Linear(in_features=512, out_features=21, bias=True)
      )
    )
    (V): Sequential(
      (0): Sequential(
        (0): Linear(in_features=512, out_features=512, bias=True)
        (1): ReLU()
      )
      (1): Sequential(
        (0): Linear(in_features=512, out_features=1, bias=True)
      )
    )
  )
)
[2022-03-14 18:54:47,073][base_learner.py][line: 333][    INFO] [RANK0]: DI-engine DRL Policy
DQNRLModel(
  (_encoder): BEVSpeedConvEncoder(
    (_relu): ReLU()
    (_model): Sequential(
      (0): Conv2d(5, 64, kernel_size=(3, 3), stride=(2, 2))
      (1): ReLU()
      (2): Conv2d(64, 128, kernel_size=(3, 3), stride=(2, 2))
      (3): ReLU()
      (4): Conv2d(128, 256, kernel_size=(3, 3), stride=(2, 2))
      (5): ReLU()
      (6): Flatten(start_dim=1, end_dim=-1)
    )
    (_mid): Linear(in_features=2304, out_features=256, bias=True)
  )
  (_head): DuelingHead(
    (A): Sequential(
      (0): Sequential(
        (0): Linear(in_features=512, out_features=512, bias=True)
        (1): ReLU()
      )
      (1): Sequential(
        (0): Linear(in_features=512, out_features=21, bias=True)
      )
    )
    (V): Sequential(
      (0): Sequential(
        (0): Linear(in_features=512, out_features=512, bias=True)
        (1): ReLU()
      )
      (1): Sequential(
        (0): Linear(in_features=512, out_features=1, bias=True)
      )
    )
  )
)
[2022-03-14 18:56:30,754][base_learner.py][line: 333][    INFO] [RANK0]: DI-engine DRL Policy
DQNRLModel(
  (_encoder): BEVSpeedConvEncoder(
    (_relu): ReLU()
    (_model): Sequential(
      (0): Conv2d(5, 64, kernel_size=(3, 3), stride=(2, 2))
      (1): ReLU()
      (2): Conv2d(64, 128, kernel_size=(3, 3), stride=(2, 2))
      (3): ReLU()
      (4): Conv2d(128, 256, kernel_size=(3, 3), stride=(2, 2))
      (5): ReLU()
      (6): Flatten(start_dim=1, end_dim=-1)
    )
    (_mid): Linear(in_features=2304, out_features=256, bias=True)
  )
  (_head): DuelingHead(
    (A): Sequential(
      (0): Sequential(
        (0): Linear(in_features=512, out_features=512, bias=True)
        (1): ReLU()
      )
      (1): Sequential(
        (0): Linear(in_features=512, out_features=21, bias=True)
      )
    )
    (V): Sequential(
      (0): Sequential(
        (0): Linear(in_features=512, out_features=512, bias=True)
        (1): ReLU()
      )
      (1): Sequential(
        (0): Linear(in_features=512, out_features=1, bias=True)
      )
    )
  )
)
[2022-03-14 19:02:53,934][base_learner.py][line: 333][    INFO] [RANK0]: DI-engine DRL Policy
DQNRLModel(
  (_encoder): BEVSpeedConvEncoder(
    (_relu): ReLU()
    (_model): Sequential(
      (0): Conv2d(5, 64, kernel_size=(3, 3), stride=(2, 2))
      (1): ReLU()
      (2): Conv2d(64, 128, kernel_size=(3, 3), stride=(2, 2))
      (3): ReLU()
      (4): Conv2d(128, 256, kernel_size=(3, 3), stride=(2, 2))
      (5): ReLU()
      (6): Flatten(start_dim=1, end_dim=-1)
    )
    (_mid): Linear(in_features=2304, out_features=256, bias=True)
  )
  (_head): DuelingHead(
    (A): Sequential(
      (0): Sequential(
        (0): Linear(in_features=512, out_features=512, bias=True)
        (1): ReLU()
      )
      (1): Sequential(
        (0): Linear(in_features=512, out_features=21, bias=True)
      )
    )
    (V): Sequential(
      (0): Sequential(
        (0): Linear(in_features=512, out_features=512, bias=True)
        (1): ReLU()
      )
      (1): Sequential(
        (0): Linear(in_features=512, out_features=1, bias=True)
      )
    )
  )
)
[2022-03-14 19:05:15,796][base_learner.py][line: 333][    INFO] [RANK0]: DI-engine DRL Policy
DQNRLModel(
  (_encoder): BEVSpeedConvEncoder(
    (_relu): ReLU()
    (_model): Sequential(
      (0): Conv2d(5, 64, kernel_size=(3, 3), stride=(2, 2))
      (1): ReLU()
      (2): Conv2d(64, 128, kernel_size=(3, 3), stride=(2, 2))
      (3): ReLU()
      (4): Conv2d(128, 256, kernel_size=(3, 3), stride=(2, 2))
      (5): ReLU()
      (6): Flatten(start_dim=1, end_dim=-1)
    )
    (_mid): Linear(in_features=2304, out_features=256, bias=True)
  )
  (_head): DuelingHead(
    (A): Sequential(
      (0): Sequential(
        (0): Linear(in_features=512, out_features=512, bias=True)
        (1): ReLU()
      )
      (1): Sequential(
        (0): Linear(in_features=512, out_features=21, bias=True)
      )
    )
    (V): Sequential(
      (0): Sequential(
        (0): Linear(in_features=512, out_features=512, bias=True)
        (1): ReLU()
      )
      (1): Sequential(
        (0): Linear(in_features=512, out_features=1, bias=True)
      )
    )
  )
)
[2022-03-14 19:06:38,542][base_learner.py][line: 333][    INFO] [RANK0]: DI-engine DRL Policy
DQNRLModel(
  (_encoder): BEVSpeedConvEncoder(
    (_relu): ReLU()
    (_model): Sequential(
      (0): Conv2d(5, 64, kernel_size=(3, 3), stride=(2, 2))
      (1): ReLU()
      (2): Conv2d(64, 128, kernel_size=(3, 3), stride=(2, 2))
      (3): ReLU()
      (4): Conv2d(128, 256, kernel_size=(3, 3), stride=(2, 2))
      (5): ReLU()
      (6): Flatten(start_dim=1, end_dim=-1)
    )
    (_mid): Linear(in_features=2304, out_features=256, bias=True)
  )
  (_head): DuelingHead(
    (A): Sequential(
      (0): Sequential(
        (0): Linear(in_features=512, out_features=512, bias=True)
        (1): ReLU()
      )
      (1): Sequential(
        (0): Linear(in_features=512, out_features=21, bias=True)
      )
    )
    (V): Sequential(
      (0): Sequential(
        (0): Linear(in_features=512, out_features=512, bias=True)
        (1): ReLU()
      )
      (1): Sequential(
        (0): Linear(in_features=512, out_features=1, bias=True)
      )
    )
  )
)
[2022-03-14 19:11:17,452][base_learner.py][line: 333][    INFO] [RANK0]: DI-engine DRL Policy
DQNRLModel(
  (_encoder): BEVSpeedConvEncoder(
    (_relu): ReLU()
    (_model): Sequential(
      (0): Conv2d(5, 64, kernel_size=(3, 3), stride=(2, 2))
      (1): ReLU()
      (2): Conv2d(64, 128, kernel_size=(3, 3), stride=(2, 2))
      (3): ReLU()
      (4): Conv2d(128, 256, kernel_size=(3, 3), stride=(2, 2))
      (5): ReLU()
      (6): Flatten(start_dim=1, end_dim=-1)
    )
    (_mid): Linear(in_features=2304, out_features=256, bias=True)
  )
  (_head): DuelingHead(
    (A): Sequential(
      (0): Sequential(
        (0): Linear(in_features=512, out_features=512, bias=True)
        (1): ReLU()
      )
      (1): Sequential(
        (0): Linear(in_features=512, out_features=21, bias=True)
      )
    )
    (V): Sequential(
      (0): Sequential(
        (0): Linear(in_features=512, out_features=512, bias=True)
        (1): ReLU()
      )
      (1): Sequential(
        (0): Linear(in_features=512, out_features=1, bias=True)
      )
    )
  )
)
[2022-03-14 19:13:56,546][base_learner.py][line: 333][    INFO] [RANK0]: DI-engine DRL Policy
DQNRLModel(
  (_encoder): BEVSpeedConvEncoder(
    (_relu): ReLU()
    (_model): Sequential(
      (0): Conv2d(5, 64, kernel_size=(3, 3), stride=(2, 2))
      (1): ReLU()
      (2): Conv2d(64, 128, kernel_size=(3, 3), stride=(2, 2))
      (3): ReLU()
      (4): Conv2d(128, 256, kernel_size=(3, 3), stride=(2, 2))
      (5): ReLU()
      (6): Flatten(start_dim=1, end_dim=-1)
    )
    (_mid): Linear(in_features=2304, out_features=256, bias=True)
  )
  (_head): DuelingHead(
    (A): Sequential(
      (0): Sequential(
        (0): Linear(in_features=512, out_features=512, bias=True)
        (1): ReLU()
      )
      (1): Sequential(
        (0): Linear(in_features=512, out_features=21, bias=True)
      )
    )
    (V): Sequential(
      (0): Sequential(
        (0): Linear(in_features=512, out_features=512, bias=True)
        (1): ReLU()
      )
      (1): Sequential(
        (0): Linear(in_features=512, out_features=1, bias=True)
      )
    )
  )
)
[2022-03-14 19:27:25,671][base_learner.py][line: 333][    INFO] [RANK0]: DI-engine DRL Policy
DQNRLModel(
  (_encoder): BEVSpeedConvEncoder(
    (_relu): ReLU()
    (_model): Sequential(
      (0): Conv2d(5, 64, kernel_size=(3, 3), stride=(2, 2))
      (1): ReLU()
      (2): Conv2d(64, 128, kernel_size=(3, 3), stride=(2, 2))
      (3): ReLU()
      (4): Conv2d(128, 256, kernel_size=(3, 3), stride=(2, 2))
      (5): ReLU()
      (6): Flatten(start_dim=1, end_dim=-1)
    )
    (_mid): Linear(in_features=2304, out_features=256, bias=True)
  )
  (_head): DuelingHead(
    (A): Sequential(
      (0): Sequential(
        (0): Linear(in_features=512, out_features=512, bias=True)
        (1): ReLU()
      )
      (1): Sequential(
        (0): Linear(in_features=512, out_features=21, bias=True)
      )
    )
    (V): Sequential(
      (0): Sequential(
        (0): Linear(in_features=512, out_features=512, bias=True)
        (1): ReLU()
      )
      (1): Sequential(
        (0): Linear(in_features=512, out_features=1, bias=True)
      )
    )
  )
)
[2022-03-14 19:27:52,058][base_learner.py][line: 333][    INFO] [RANK0]: DI-engine DRL Policy
DQNRLModel(
  (_encoder): BEVSpeedConvEncoder(
    (_relu): ReLU()
    (_model): Sequential(
      (0): Conv2d(5, 64, kernel_size=(3, 3), stride=(2, 2))
      (1): ReLU()
      (2): Conv2d(64, 128, kernel_size=(3, 3), stride=(2, 2))
      (3): ReLU()
      (4): Conv2d(128, 256, kernel_size=(3, 3), stride=(2, 2))
      (5): ReLU()
      (6): Flatten(start_dim=1, end_dim=-1)
    )
    (_mid): Linear(in_features=2304, out_features=256, bias=True)
  )
  (_head): DuelingHead(
    (A): Sequential(
      (0): Sequential(
        (0): Linear(in_features=512, out_features=512, bias=True)
        (1): ReLU()
      )
      (1): Sequential(
        (0): Linear(in_features=512, out_features=21, bias=True)
      )
    )
    (V): Sequential(
      (0): Sequential(
        (0): Linear(in_features=512, out_features=512, bias=True)
        (1): ReLU()
      )
      (1): Sequential(
        (0): Linear(in_features=512, out_features=1, bias=True)
      )
    )
  )
)
[2022-03-14 19:28:31,890][base_learner.py][line: 333][    INFO] [RANK0]: DI-engine DRL Policy
DQNRLModel(
  (_encoder): BEVSpeedConvEncoder(
    (_relu): ReLU()
    (_model): Sequential(
      (0): Conv2d(5, 64, kernel_size=(3, 3), stride=(2, 2))
      (1): ReLU()
      (2): Conv2d(64, 128, kernel_size=(3, 3), stride=(2, 2))
      (3): ReLU()
      (4): Conv2d(128, 256, kernel_size=(3, 3), stride=(2, 2))
      (5): ReLU()
      (6): Flatten(start_dim=1, end_dim=-1)
    )
    (_mid): Linear(in_features=2304, out_features=256, bias=True)
  )
  (_head): DuelingHead(
    (A): Sequential(
      (0): Sequential(
        (0): Linear(in_features=512, out_features=512, bias=True)
        (1): ReLU()
      )
      (1): Sequential(
        (0): Linear(in_features=512, out_features=21, bias=True)
      )
    )
    (V): Sequential(
      (0): Sequential(
        (0): Linear(in_features=512, out_features=512, bias=True)
        (1): ReLU()
      )
      (1): Sequential(
        (0): Linear(in_features=512, out_features=1, bias=True)
      )
    )
  )
)
[2022-03-14 19:28:58,049][base_learner.py][line: 333][    INFO] [RANK0]: DI-engine DRL Policy
DQNRLModel(
  (_encoder): BEVSpeedConvEncoder(
    (_relu): ReLU()
    (_model): Sequential(
      (0): Conv2d(5, 64, kernel_size=(3, 3), stride=(2, 2))
      (1): ReLU()
      (2): Conv2d(64, 128, kernel_size=(3, 3), stride=(2, 2))
      (3): ReLU()
      (4): Conv2d(128, 256, kernel_size=(3, 3), stride=(2, 2))
      (5): ReLU()
      (6): Flatten(start_dim=1, end_dim=-1)
    )
    (_mid): Linear(in_features=2304, out_features=256, bias=True)
  )
  (_head): DuelingHead(
    (A): Sequential(
      (0): Sequential(
        (0): Linear(in_features=512, out_features=512, bias=True)
        (1): ReLU()
      )
      (1): Sequential(
        (0): Linear(in_features=512, out_features=21, bias=True)
      )
    )
    (V): Sequential(
      (0): Sequential(
        (0): Linear(in_features=512, out_features=512, bias=True)
        (1): ReLU()
      )
      (1): Sequential(
        (0): Linear(in_features=512, out_features=1, bias=True)
      )
    )
  )
)
[2022-03-15 12:53:21,459][base_learner.py][line: 333][    INFO] [RANK0]: DI-engine DRL Policy
DQNRLModel(
  (_encoder): BEVSpeedConvEncoder(
    (_relu): ReLU()
    (_model): Sequential(
      (0): Conv2d(5, 64, kernel_size=(3, 3), stride=(2, 2))
      (1): ReLU()
      (2): Conv2d(64, 128, kernel_size=(3, 3), stride=(2, 2))
      (3): ReLU()
      (4): Conv2d(128, 256, kernel_size=(3, 3), stride=(2, 2))
      (5): ReLU()
      (6): Flatten(start_dim=1, end_dim=-1)
    )
    (_mid): Linear(in_features=2304, out_features=256, bias=True)
  )
  (_head): DuelingHead(
    (A): Sequential(
      (0): Sequential(
        (0): Linear(in_features=512, out_features=512, bias=True)
        (1): ReLU()
      )
      (1): Sequential(
        (0): Linear(in_features=512, out_features=21, bias=True)
      )
    )
    (V): Sequential(
      (0): Sequential(
        (0): Linear(in_features=512, out_features=512, bias=True)
        (1): ReLU()
      )
      (1): Sequential(
        (0): Linear(in_features=512, out_features=1, bias=True)
      )
    )
  )
)
[2022-03-15 12:54:30,384][base_learner.py][line: 333][    INFO] [RANK0]: DI-engine DRL Policy
DQNRLModel(
  (_encoder): BEVSpeedConvEncoder(
    (_relu): ReLU()
    (_model): Sequential(
      (0): Conv2d(5, 64, kernel_size=(3, 3), stride=(2, 2))
      (1): ReLU()
      (2): Conv2d(64, 128, kernel_size=(3, 3), stride=(2, 2))
      (3): ReLU()
      (4): Conv2d(128, 256, kernel_size=(3, 3), stride=(2, 2))
      (5): ReLU()
      (6): Flatten(start_dim=1, end_dim=-1)
    )
    (_mid): Linear(in_features=2304, out_features=256, bias=True)
  )
  (_head): DuelingHead(
    (A): Sequential(
      (0): Sequential(
        (0): Linear(in_features=512, out_features=512, bias=True)
        (1): ReLU()
      )
      (1): Sequential(
        (0): Linear(in_features=512, out_features=21, bias=True)
      )
    )
    (V): Sequential(
      (0): Sequential(
        (0): Linear(in_features=512, out_features=512, bias=True)
        (1): ReLU()
      )
      (1): Sequential(
        (0): Linear(in_features=512, out_features=1, bias=True)
      )
    )
  )
)
[2022-03-15 12:55:02,517][base_learner.py][line: 333][    INFO] [RANK0]: DI-engine DRL Policy
DQNRLModel(
  (_encoder): BEVSpeedConvEncoder(
    (_relu): ReLU()
    (_model): Sequential(
      (0): Conv2d(5, 64, kernel_size=(3, 3), stride=(2, 2))
      (1): ReLU()
      (2): Conv2d(64, 128, kernel_size=(3, 3), stride=(2, 2))
      (3): ReLU()
      (4): Conv2d(128, 256, kernel_size=(3, 3), stride=(2, 2))
      (5): ReLU()
      (6): Flatten(start_dim=1, end_dim=-1)
    )
    (_mid): Linear(in_features=2304, out_features=256, bias=True)
  )
  (_head): DuelingHead(
    (A): Sequential(
      (0): Sequential(
        (0): Linear(in_features=512, out_features=512, bias=True)
        (1): ReLU()
      )
      (1): Sequential(
        (0): Linear(in_features=512, out_features=21, bias=True)
      )
    )
    (V): Sequential(
      (0): Sequential(
        (0): Linear(in_features=512, out_features=512, bias=True)
        (1): ReLU()
      )
      (1): Sequential(
        (0): Linear(in_features=512, out_features=1, bias=True)
      )
    )
  )
)
[2022-03-15 12:55:45,510][base_learner.py][line: 333][    INFO] [RANK0]: DI-engine DRL Policy
DQNRLModel(
  (_encoder): BEVSpeedConvEncoder(
    (_relu): ReLU()
    (_model): Sequential(
      (0): Conv2d(5, 64, kernel_size=(3, 3), stride=(2, 2))
      (1): ReLU()
      (2): Conv2d(64, 128, kernel_size=(3, 3), stride=(2, 2))
      (3): ReLU()
      (4): Conv2d(128, 256, kernel_size=(3, 3), stride=(2, 2))
      (5): ReLU()
      (6): Flatten(start_dim=1, end_dim=-1)
    )
    (_mid): Linear(in_features=2304, out_features=256, bias=True)
  )
  (_head): DuelingHead(
    (A): Sequential(
      (0): Sequential(
        (0): Linear(in_features=512, out_features=512, bias=True)
        (1): ReLU()
      )
      (1): Sequential(
        (0): Linear(in_features=512, out_features=21, bias=True)
      )
    )
    (V): Sequential(
      (0): Sequential(
        (0): Linear(in_features=512, out_features=512, bias=True)
        (1): ReLU()
      )
      (1): Sequential(
        (0): Linear(in_features=512, out_features=1, bias=True)
      )
    )
  )
)
[2022-03-15 12:58:51,240][base_learner.py][line: 333][    INFO] [RANK0]: DI-engine DRL Policy
DQNRLModel(
  (_encoder): BEVSpeedConvEncoder(
    (_relu): ReLU()
    (_model): Sequential(
      (0): Conv2d(5, 64, kernel_size=(3, 3), stride=(2, 2))
      (1): ReLU()
      (2): Conv2d(64, 128, kernel_size=(3, 3), stride=(2, 2))
      (3): ReLU()
      (4): Conv2d(128, 256, kernel_size=(3, 3), stride=(2, 2))
      (5): ReLU()
      (6): Flatten(start_dim=1, end_dim=-1)
    )
    (_mid): Linear(in_features=2304, out_features=256, bias=True)
  )
  (_head): DuelingHead(
    (A): Sequential(
      (0): Sequential(
        (0): Linear(in_features=512, out_features=512, bias=True)
        (1): ReLU()
      )
      (1): Sequential(
        (0): Linear(in_features=512, out_features=21, bias=True)
      )
    )
    (V): Sequential(
      (0): Sequential(
        (0): Linear(in_features=512, out_features=512, bias=True)
        (1): ReLU()
      )
      (1): Sequential(
        (0): Linear(in_features=512, out_features=1, bias=True)
      )
    )
  )
)
[2022-03-15 13:07:11,878][base_learner.py][line: 333][    INFO] [RANK0]: DI-engine DRL Policy
DQNRLModel(
  (_encoder): BEVSpeedConvEncoder(
    (_relu): ReLU()
    (_model): Sequential(
      (0): Conv2d(5, 64, kernel_size=(3, 3), stride=(2, 2))
      (1): ReLU()
      (2): Conv2d(64, 128, kernel_size=(3, 3), stride=(2, 2))
      (3): ReLU()
      (4): Conv2d(128, 256, kernel_size=(3, 3), stride=(2, 2))
      (5): ReLU()
      (6): Flatten(start_dim=1, end_dim=-1)
    )
    (_mid): Linear(in_features=2304, out_features=256, bias=True)
  )
  (_head): DuelingHead(
    (A): Sequential(
      (0): Sequential(
        (0): Linear(in_features=512, out_features=512, bias=True)
        (1): ReLU()
      )
      (1): Sequential(
        (0): Linear(in_features=512, out_features=21, bias=True)
      )
    )
    (V): Sequential(
      (0): Sequential(
        (0): Linear(in_features=512, out_features=512, bias=True)
        (1): ReLU()
      )
      (1): Sequential(
        (0): Linear(in_features=512, out_features=1, bias=True)
      )
    )
  )
)
[2022-03-15 13:28:21,033][base_learner.py][line: 333][    INFO] [RANK0]: DI-engine DRL Policy
DQNRLModel(
  (_encoder): BEVSpeedConvEncoder(
    (_relu): ReLU()
    (_model): Sequential(
      (0): Conv2d(5, 64, kernel_size=(3, 3), stride=(2, 2))
      (1): ReLU()
      (2): Conv2d(64, 128, kernel_size=(3, 3), stride=(2, 2))
      (3): ReLU()
      (4): Conv2d(128, 256, kernel_size=(3, 3), stride=(2, 2))
      (5): ReLU()
      (6): Flatten(start_dim=1, end_dim=-1)
    )
    (_mid): Linear(in_features=2304, out_features=256, bias=True)
  )
  (_head): DuelingHead(
    (A): Sequential(
      (0): Sequential(
        (0): Linear(in_features=512, out_features=512, bias=True)
        (1): ReLU()
      )
      (1): Sequential(
        (0): Linear(in_features=512, out_features=21, bias=True)
      )
    )
    (V): Sequential(
      (0): Sequential(
        (0): Linear(in_features=512, out_features=512, bias=True)
        (1): ReLU()
      )
      (1): Sequential(
        (0): Linear(in_features=512, out_features=1, bias=True)
      )
    )
  )
)
[2022-03-15 13:28:48,392][base_learner.py][line: 333][    INFO] [RANK0]: DI-engine DRL Policy
DQNRLModel(
  (_encoder): BEVSpeedConvEncoder(
    (_relu): ReLU()
    (_model): Sequential(
      (0): Conv2d(5, 64, kernel_size=(3, 3), stride=(2, 2))
      (1): ReLU()
      (2): Conv2d(64, 128, kernel_size=(3, 3), stride=(2, 2))
      (3): ReLU()
      (4): Conv2d(128, 256, kernel_size=(3, 3), stride=(2, 2))
      (5): ReLU()
      (6): Flatten(start_dim=1, end_dim=-1)
    )
    (_mid): Linear(in_features=2304, out_features=256, bias=True)
  )
  (_head): DuelingHead(
    (A): Sequential(
      (0): Sequential(
        (0): Linear(in_features=512, out_features=512, bias=True)
        (1): ReLU()
      )
      (1): Sequential(
        (0): Linear(in_features=512, out_features=21, bias=True)
      )
    )
    (V): Sequential(
      (0): Sequential(
        (0): Linear(in_features=512, out_features=512, bias=True)
        (1): ReLU()
      )
      (1): Sequential(
        (0): Linear(in_features=512, out_features=1, bias=True)
      )
    )
  )
)
[2022-03-15 13:39:11,310][base_learner.py][line: 333][    INFO] [RANK0]: DI-engine DRL Policy
DQNRLModel(
  (_encoder): BEVSpeedConvEncoder(
    (_relu): ReLU()
    (_model): Sequential(
      (0): Conv2d(5, 64, kernel_size=(3, 3), stride=(2, 2))
      (1): ReLU()
      (2): Conv2d(64, 128, kernel_size=(3, 3), stride=(2, 2))
      (3): ReLU()
      (4): Conv2d(128, 256, kernel_size=(3, 3), stride=(2, 2))
      (5): ReLU()
      (6): Flatten(start_dim=1, end_dim=-1)
    )
    (_mid): Linear(in_features=2304, out_features=256, bias=True)
  )
  (_head): DuelingHead(
    (A): Sequential(
      (0): Sequential(
        (0): Linear(in_features=512, out_features=512, bias=True)
        (1): ReLU()
      )
      (1): Sequential(
        (0): Linear(in_features=512, out_features=21, bias=True)
      )
    )
    (V): Sequential(
      (0): Sequential(
        (0): Linear(in_features=512, out_features=512, bias=True)
        (1): ReLU()
      )
      (1): Sequential(
        (0): Linear(in_features=512, out_features=1, bias=True)
      )
    )
  )
)
[2022-03-15 14:11:48,606][base_learner.py][line: 333][    INFO] [RANK0]: DI-engine DRL Policy
DQNRLModel(
  (_encoder): BEVSpeedConvEncoder(
    (_relu): ReLU()
    (_model): Sequential(
      (0): Conv2d(5, 64, kernel_size=(3, 3), stride=(2, 2))
      (1): ReLU()
      (2): Conv2d(64, 128, kernel_size=(3, 3), stride=(2, 2))
      (3): ReLU()
      (4): Conv2d(128, 256, kernel_size=(3, 3), stride=(2, 2))
      (5): ReLU()
      (6): Flatten(start_dim=1, end_dim=-1)
    )
    (_mid): Linear(in_features=2304, out_features=256, bias=True)
  )
  (_head): DuelingHead(
    (A): Sequential(
      (0): Sequential(
        (0): Linear(in_features=512, out_features=512, bias=True)
        (1): ReLU()
      )
      (1): Sequential(
        (0): Linear(in_features=512, out_features=21, bias=True)
      )
    )
    (V): Sequential(
      (0): Sequential(
        (0): Linear(in_features=512, out_features=512, bias=True)
        (1): ReLU()
      )
      (1): Sequential(
        (0): Linear(in_features=512, out_features=1, bias=True)
      )
    )
  )
)
[2022-03-15 14:12:31,640][base_learner.py][line: 333][    INFO] [RANK0]: DI-engine DRL Policy
DQNRLModel(
  (_encoder): BEVSpeedConvEncoder(
    (_relu): ReLU()
    (_model): Sequential(
      (0): Conv2d(5, 64, kernel_size=(3, 3), stride=(2, 2))
      (1): ReLU()
      (2): Conv2d(64, 128, kernel_size=(3, 3), stride=(2, 2))
      (3): ReLU()
      (4): Conv2d(128, 256, kernel_size=(3, 3), stride=(2, 2))
      (5): ReLU()
      (6): Flatten(start_dim=1, end_dim=-1)
    )
    (_mid): Linear(in_features=2304, out_features=256, bias=True)
  )
  (_head): DuelingHead(
    (A): Sequential(
      (0): Sequential(
        (0): Linear(in_features=512, out_features=512, bias=True)
        (1): ReLU()
      )
      (1): Sequential(
        (0): Linear(in_features=512, out_features=21, bias=True)
      )
    )
    (V): Sequential(
      (0): Sequential(
        (0): Linear(in_features=512, out_features=512, bias=True)
        (1): ReLU()
      )
      (1): Sequential(
        (0): Linear(in_features=512, out_features=1, bias=True)
      )
    )
  )
)
[2022-03-15 14:13:23,049][base_learner.py][line: 333][    INFO] [RANK0]: DI-engine DRL Policy
DQNRLModel(
  (_encoder): BEVSpeedConvEncoder(
    (_relu): ReLU()
    (_model): Sequential(
      (0): Conv2d(5, 64, kernel_size=(3, 3), stride=(2, 2))
      (1): ReLU()
      (2): Conv2d(64, 128, kernel_size=(3, 3), stride=(2, 2))
      (3): ReLU()
      (4): Conv2d(128, 256, kernel_size=(3, 3), stride=(2, 2))
      (5): ReLU()
      (6): Flatten(start_dim=1, end_dim=-1)
    )
    (_mid): Linear(in_features=2304, out_features=256, bias=True)
  )
  (_head): DuelingHead(
    (A): Sequential(
      (0): Sequential(
        (0): Linear(in_features=512, out_features=512, bias=True)
        (1): ReLU()
      )
      (1): Sequential(
        (0): Linear(in_features=512, out_features=21, bias=True)
      )
    )
    (V): Sequential(
      (0): Sequential(
        (0): Linear(in_features=512, out_features=512, bias=True)
        (1): ReLU()
      )
      (1): Sequential(
        (0): Linear(in_features=512, out_features=1, bias=True)
      )
    )
  )
)
[2022-03-15 14:14:25,960][base_learner.py][line: 333][    INFO] [RANK0]: DI-engine DRL Policy
DQNRLModel(
  (_encoder): BEVSpeedConvEncoder(
    (_relu): ReLU()
    (_model): Sequential(
      (0): Conv2d(5, 64, kernel_size=(3, 3), stride=(2, 2))
      (1): ReLU()
      (2): Conv2d(64, 128, kernel_size=(3, 3), stride=(2, 2))
      (3): ReLU()
      (4): Conv2d(128, 256, kernel_size=(3, 3), stride=(2, 2))
      (5): ReLU()
      (6): Flatten(start_dim=1, end_dim=-1)
    )
    (_mid): Linear(in_features=2304, out_features=256, bias=True)
  )
  (_head): DuelingHead(
    (A): Sequential(
      (0): Sequential(
        (0): Linear(in_features=512, out_features=512, bias=True)
        (1): ReLU()
      )
      (1): Sequential(
        (0): Linear(in_features=512, out_features=21, bias=True)
      )
    )
    (V): Sequential(
      (0): Sequential(
        (0): Linear(in_features=512, out_features=512, bias=True)
        (1): ReLU()
      )
      (1): Sequential(
        (0): Linear(in_features=512, out_features=1, bias=True)
      )
    )
  )
)
[2022-03-15 14:14:54,558][base_learner.py][line: 333][    INFO] [RANK0]: DI-engine DRL Policy
DQNRLModel(
  (_encoder): BEVSpeedConvEncoder(
    (_relu): ReLU()
    (_model): Sequential(
      (0): Conv2d(5, 64, kernel_size=(3, 3), stride=(2, 2))
      (1): ReLU()
      (2): Conv2d(64, 128, kernel_size=(3, 3), stride=(2, 2))
      (3): ReLU()
      (4): Conv2d(128, 256, kernel_size=(3, 3), stride=(2, 2))
      (5): ReLU()
      (6): Flatten(start_dim=1, end_dim=-1)
    )
    (_mid): Linear(in_features=2304, out_features=256, bias=True)
  )
  (_head): DuelingHead(
    (A): Sequential(
      (0): Sequential(
        (0): Linear(in_features=512, out_features=512, bias=True)
        (1): ReLU()
      )
      (1): Sequential(
        (0): Linear(in_features=512, out_features=21, bias=True)
      )
    )
    (V): Sequential(
      (0): Sequential(
        (0): Linear(in_features=512, out_features=512, bias=True)
        (1): ReLU()
      )
      (1): Sequential(
        (0): Linear(in_features=512, out_features=1, bias=True)
      )
    )
  )
)
[2022-03-15 14:23:01,445][base_learner.py][line: 333][    INFO] [RANK0]: DI-engine DRL Policy
DQNRLModel(
  (_encoder): BEVSpeedConvEncoder(
    (_relu): ReLU()
    (_model): Sequential(
      (0): Conv2d(5, 64, kernel_size=(3, 3), stride=(2, 2))
      (1): ReLU()
      (2): Conv2d(64, 128, kernel_size=(3, 3), stride=(2, 2))
      (3): ReLU()
      (4): Conv2d(128, 256, kernel_size=(3, 3), stride=(2, 2))
      (5): ReLU()
      (6): Flatten(start_dim=1, end_dim=-1)
    )
    (_mid): Linear(in_features=2304, out_features=256, bias=True)
  )
  (_head): DuelingHead(
    (A): Sequential(
      (0): Sequential(
        (0): Linear(in_features=512, out_features=512, bias=True)
        (1): ReLU()
      )
      (1): Sequential(
        (0): Linear(in_features=512, out_features=21, bias=True)
      )
    )
    (V): Sequential(
      (0): Sequential(
        (0): Linear(in_features=512, out_features=512, bias=True)
        (1): ReLU()
      )
      (1): Sequential(
        (0): Linear(in_features=512, out_features=1, bias=True)
      )
    )
  )
)
[2022-03-15 14:24:11,206][base_learner.py][line: 333][    INFO] [RANK0]: DI-engine DRL Policy
DQNRLModel(
  (_encoder): BEVSpeedConvEncoder(
    (_relu): ReLU()
    (_model): Sequential(
      (0): Conv2d(5, 64, kernel_size=(3, 3), stride=(2, 2))
      (1): ReLU()
      (2): Conv2d(64, 128, kernel_size=(3, 3), stride=(2, 2))
      (3): ReLU()
      (4): Conv2d(128, 256, kernel_size=(3, 3), stride=(2, 2))
      (5): ReLU()
      (6): Flatten(start_dim=1, end_dim=-1)
    )
    (_mid): Linear(in_features=2304, out_features=256, bias=True)
  )
  (_head): DuelingHead(
    (A): Sequential(
      (0): Sequential(
        (0): Linear(in_features=512, out_features=512, bias=True)
        (1): ReLU()
      )
      (1): Sequential(
        (0): Linear(in_features=512, out_features=21, bias=True)
      )
    )
    (V): Sequential(
      (0): Sequential(
        (0): Linear(in_features=512, out_features=512, bias=True)
        (1): ReLU()
      )
      (1): Sequential(
        (0): Linear(in_features=512, out_features=1, bias=True)
      )
    )
  )
)
[2022-03-15 14:24:51,907][base_learner.py][line: 333][    INFO] [RANK0]: DI-engine DRL Policy
DQNRLModel(
  (_encoder): BEVSpeedConvEncoder(
    (_relu): ReLU()
    (_model): Sequential(
      (0): Conv2d(5, 64, kernel_size=(3, 3), stride=(2, 2))
      (1): ReLU()
      (2): Conv2d(64, 128, kernel_size=(3, 3), stride=(2, 2))
      (3): ReLU()
      (4): Conv2d(128, 256, kernel_size=(3, 3), stride=(2, 2))
      (5): ReLU()
      (6): Flatten(start_dim=1, end_dim=-1)
    )
    (_mid): Linear(in_features=2304, out_features=256, bias=True)
  )
  (_head): DuelingHead(
    (A): Sequential(
      (0): Sequential(
        (0): Linear(in_features=512, out_features=512, bias=True)
        (1): ReLU()
      )
      (1): Sequential(
        (0): Linear(in_features=512, out_features=21, bias=True)
      )
    )
    (V): Sequential(
      (0): Sequential(
        (0): Linear(in_features=512, out_features=512, bias=True)
        (1): ReLU()
      )
      (1): Sequential(
        (0): Linear(in_features=512, out_features=1, bias=True)
      )
    )
  )
)
[2022-03-15 14:33:28,587][base_learner.py][line: 333][    INFO] [RANK0]: DI-engine DRL Policy
DQNRLModel(
  (_encoder): BEVSpeedConvEncoder(
    (_relu): ReLU()
    (_model): Sequential(
      (0): Conv2d(5, 64, kernel_size=(3, 3), stride=(2, 2))
      (1): ReLU()
      (2): Conv2d(64, 128, kernel_size=(3, 3), stride=(2, 2))
      (3): ReLU()
      (4): Conv2d(128, 256, kernel_size=(3, 3), stride=(2, 2))
      (5): ReLU()
      (6): Flatten(start_dim=1, end_dim=-1)
    )
    (_mid): Linear(in_features=2304, out_features=256, bias=True)
  )
  (_head): DuelingHead(
    (A): Sequential(
      (0): Sequential(
        (0): Linear(in_features=512, out_features=512, bias=True)
        (1): ReLU()
      )
      (1): Sequential(
        (0): Linear(in_features=512, out_features=21, bias=True)
      )
    )
    (V): Sequential(
      (0): Sequential(
        (0): Linear(in_features=512, out_features=512, bias=True)
        (1): ReLU()
      )
      (1): Sequential(
        (0): Linear(in_features=512, out_features=1, bias=True)
      )
    )
  )
)
[2022-03-15 14:33:52,705][base_learner.py][line: 333][    INFO] [RANK0]: DI-engine DRL Policy
DQNRLModel(
  (_encoder): BEVSpeedConvEncoder(
    (_relu): ReLU()
    (_model): Sequential(
      (0): Conv2d(5, 64, kernel_size=(3, 3), stride=(2, 2))
      (1): ReLU()
      (2): Conv2d(64, 128, kernel_size=(3, 3), stride=(2, 2))
      (3): ReLU()
      (4): Conv2d(128, 256, kernel_size=(3, 3), stride=(2, 2))
      (5): ReLU()
      (6): Flatten(start_dim=1, end_dim=-1)
    )
    (_mid): Linear(in_features=2304, out_features=256, bias=True)
  )
  (_head): DuelingHead(
    (A): Sequential(
      (0): Sequential(
        (0): Linear(in_features=512, out_features=512, bias=True)
        (1): ReLU()
      )
      (1): Sequential(
        (0): Linear(in_features=512, out_features=21, bias=True)
      )
    )
    (V): Sequential(
      (0): Sequential(
        (0): Linear(in_features=512, out_features=512, bias=True)
        (1): ReLU()
      )
      (1): Sequential(
        (0): Linear(in_features=512, out_features=1, bias=True)
      )
    )
  )
)
[2022-03-15 14:34:57,521][base_learner.py][line: 333][    INFO] [RANK0]: DI-engine DRL Policy
DQNRLModel(
  (_encoder): BEVSpeedConvEncoder(
    (_relu): ReLU()
    (_model): Sequential(
      (0): Conv2d(5, 64, kernel_size=(3, 3), stride=(2, 2))
      (1): ReLU()
      (2): Conv2d(64, 128, kernel_size=(3, 3), stride=(2, 2))
      (3): ReLU()
      (4): Conv2d(128, 256, kernel_size=(3, 3), stride=(2, 2))
      (5): ReLU()
      (6): Flatten(start_dim=1, end_dim=-1)
    )
    (_mid): Linear(in_features=2304, out_features=256, bias=True)
  )
  (_head): DuelingHead(
    (A): Sequential(
      (0): Sequential(
        (0): Linear(in_features=512, out_features=512, bias=True)
        (1): ReLU()
      )
      (1): Sequential(
        (0): Linear(in_features=512, out_features=21, bias=True)
      )
    )
    (V): Sequential(
      (0): Sequential(
        (0): Linear(in_features=512, out_features=512, bias=True)
        (1): ReLU()
      )
      (1): Sequential(
        (0): Linear(in_features=512, out_features=1, bias=True)
      )
    )
  )
)
[2022-03-15 14:37:32,644][base_learner.py][line: 333][    INFO] [RANK0]: DI-engine DRL Policy
DQNRLModel(
  (_encoder): BEVSpeedConvEncoder(
    (_relu): ReLU()
    (_model): Sequential(
      (0): Conv2d(5, 64, kernel_size=(3, 3), stride=(2, 2))
      (1): ReLU()
      (2): Conv2d(64, 128, kernel_size=(3, 3), stride=(2, 2))
      (3): ReLU()
      (4): Conv2d(128, 256, kernel_size=(3, 3), stride=(2, 2))
      (5): ReLU()
      (6): Flatten(start_dim=1, end_dim=-1)
    )
    (_mid): Linear(in_features=2304, out_features=256, bias=True)
  )
  (_head): DuelingHead(
    (A): Sequential(
      (0): Sequential(
        (0): Linear(in_features=512, out_features=512, bias=True)
        (1): ReLU()
      )
      (1): Sequential(
        (0): Linear(in_features=512, out_features=21, bias=True)
      )
    )
    (V): Sequential(
      (0): Sequential(
        (0): Linear(in_features=512, out_features=512, bias=True)
        (1): ReLU()
      )
      (1): Sequential(
        (0): Linear(in_features=512, out_features=1, bias=True)
      )
    )
  )
)
[2022-03-15 14:51:26,780][base_learner.py][line: 333][    INFO] [RANK0]: DI-engine DRL Policy
DQNRLModel(
  (_encoder): BEVSpeedConvEncoder(
    (_relu): ReLU()
    (_model): Sequential(
      (0): Conv2d(5, 64, kernel_size=(3, 3), stride=(2, 2))
      (1): ReLU()
      (2): Conv2d(64, 128, kernel_size=(3, 3), stride=(2, 2))
      (3): ReLU()
      (4): Conv2d(128, 256, kernel_size=(3, 3), stride=(2, 2))
      (5): ReLU()
      (6): Flatten(start_dim=1, end_dim=-1)
    )
    (_mid): Linear(in_features=2304, out_features=256, bias=True)
  )
  (_head): DuelingHead(
    (A): Sequential(
      (0): Sequential(
        (0): Linear(in_features=512, out_features=512, bias=True)
        (1): ReLU()
      )
      (1): Sequential(
        (0): Linear(in_features=512, out_features=21, bias=True)
      )
    )
    (V): Sequential(
      (0): Sequential(
        (0): Linear(in_features=512, out_features=512, bias=True)
        (1): ReLU()
      )
      (1): Sequential(
        (0): Linear(in_features=512, out_features=1, bias=True)
      )
    )
  )
)
[2022-03-15 16:13:54,563][base_learner.py][line: 333][    INFO] [RANK0]: DI-engine DRL Policy
DQNRLModel(
  (_encoder): BEVSpeedConvEncoder(
    (_relu): ReLU()
    (_model): Sequential(
      (0): Conv2d(5, 64, kernel_size=(3, 3), stride=(2, 2))
      (1): ReLU()
      (2): Conv2d(64, 128, kernel_size=(3, 3), stride=(2, 2))
      (3): ReLU()
      (4): Conv2d(128, 256, kernel_size=(3, 3), stride=(2, 2))
      (5): ReLU()
      (6): Flatten(start_dim=1, end_dim=-1)
    )
    (_mid): Linear(in_features=2304, out_features=256, bias=True)
  )
  (_head): DuelingHead(
    (A): Sequential(
      (0): Sequential(
        (0): Linear(in_features=512, out_features=512, bias=True)
        (1): ReLU()
      )
      (1): Sequential(
        (0): Linear(in_features=512, out_features=21, bias=True)
      )
    )
    (V): Sequential(
      (0): Sequential(
        (0): Linear(in_features=512, out_features=512, bias=True)
        (1): ReLU()
      )
      (1): Sequential(
        (0): Linear(in_features=512, out_features=1, bias=True)
      )
    )
  )
)
[2022-03-15 16:14:31,181][base_learner.py][line: 333][    INFO] [RANK0]: DI-engine DRL Policy
DQNRLModel(
  (_encoder): BEVSpeedConvEncoder(
    (_relu): ReLU()
    (_model): Sequential(
      (0): Conv2d(5, 64, kernel_size=(3, 3), stride=(2, 2))
      (1): ReLU()
      (2): Conv2d(64, 128, kernel_size=(3, 3), stride=(2, 2))
      (3): ReLU()
      (4): Conv2d(128, 256, kernel_size=(3, 3), stride=(2, 2))
      (5): ReLU()
      (6): Flatten(start_dim=1, end_dim=-1)
    )
    (_mid): Linear(in_features=2304, out_features=256, bias=True)
  )
  (_head): DuelingHead(
    (A): Sequential(
      (0): Sequential(
        (0): Linear(in_features=512, out_features=512, bias=True)
        (1): ReLU()
      )
      (1): Sequential(
        (0): Linear(in_features=512, out_features=21, bias=True)
      )
    )
    (V): Sequential(
      (0): Sequential(
        (0): Linear(in_features=512, out_features=512, bias=True)
        (1): ReLU()
      )
      (1): Sequential(
        (0): Linear(in_features=512, out_features=1, bias=True)
      )
    )
  )
)
[2022-03-15 16:14:49,000][base_learner.py][line: 333][    INFO] [RANK0]: DI-engine DRL Policy
DQNRLModel(
  (_encoder): BEVSpeedConvEncoder(
    (_relu): ReLU()
    (_model): Sequential(
      (0): Conv2d(5, 64, kernel_size=(3, 3), stride=(2, 2))
      (1): ReLU()
      (2): Conv2d(64, 128, kernel_size=(3, 3), stride=(2, 2))
      (3): ReLU()
      (4): Conv2d(128, 256, kernel_size=(3, 3), stride=(2, 2))
      (5): ReLU()
      (6): Flatten(start_dim=1, end_dim=-1)
    )
    (_mid): Linear(in_features=2304, out_features=256, bias=True)
  )
  (_head): DuelingHead(
    (A): Sequential(
      (0): Sequential(
        (0): Linear(in_features=512, out_features=512, bias=True)
        (1): ReLU()
      )
      (1): Sequential(
        (0): Linear(in_features=512, out_features=21, bias=True)
      )
    )
    (V): Sequential(
      (0): Sequential(
        (0): Linear(in_features=512, out_features=512, bias=True)
        (1): ReLU()
      )
      (1): Sequential(
        (0): Linear(in_features=512, out_features=1, bias=True)
      )
    )
  )
)
[2022-03-15 16:15:09,315][base_learner.py][line: 333][    INFO] [RANK0]: DI-engine DRL Policy
DQNRLModel(
  (_encoder): BEVSpeedConvEncoder(
    (_relu): ReLU()
    (_model): Sequential(
      (0): Conv2d(5, 64, kernel_size=(3, 3), stride=(2, 2))
      (1): ReLU()
      (2): Conv2d(64, 128, kernel_size=(3, 3), stride=(2, 2))
      (3): ReLU()
      (4): Conv2d(128, 256, kernel_size=(3, 3), stride=(2, 2))
      (5): ReLU()
      (6): Flatten(start_dim=1, end_dim=-1)
    )
    (_mid): Linear(in_features=2304, out_features=256, bias=True)
  )
  (_head): DuelingHead(
    (A): Sequential(
      (0): Sequential(
        (0): Linear(in_features=512, out_features=512, bias=True)
        (1): ReLU()
      )
      (1): Sequential(
        (0): Linear(in_features=512, out_features=21, bias=True)
      )
    )
    (V): Sequential(
      (0): Sequential(
        (0): Linear(in_features=512, out_features=512, bias=True)
        (1): ReLU()
      )
      (1): Sequential(
        (0): Linear(in_features=512, out_features=1, bias=True)
      )
    )
  )
)
[2022-03-15 16:18:05,149][base_learner.py][line: 333][    INFO] [RANK0]: DI-engine DRL Policy
DQNRLModel(
  (_encoder): BEVSpeedConvEncoder(
    (_relu): ReLU()
    (_model): Sequential(
      (0): Conv2d(5, 64, kernel_size=(3, 3), stride=(2, 2))
      (1): ReLU()
      (2): Conv2d(64, 128, kernel_size=(3, 3), stride=(2, 2))
      (3): ReLU()
      (4): Conv2d(128, 256, kernel_size=(3, 3), stride=(2, 2))
      (5): ReLU()
      (6): Flatten(start_dim=1, end_dim=-1)
    )
    (_mid): Linear(in_features=2304, out_features=256, bias=True)
  )
  (_head): DuelingHead(
    (A): Sequential(
      (0): Sequential(
        (0): Linear(in_features=512, out_features=512, bias=True)
        (1): ReLU()
      )
      (1): Sequential(
        (0): Linear(in_features=512, out_features=21, bias=True)
      )
    )
    (V): Sequential(
      (0): Sequential(
        (0): Linear(in_features=512, out_features=512, bias=True)
        (1): ReLU()
      )
      (1): Sequential(
        (0): Linear(in_features=512, out_features=1, bias=True)
      )
    )
  )
)
[2022-03-15 16:22:17,189][base_learner.py][line: 333][    INFO] [RANK0]: DI-engine DRL Policy
DQNRLModel(
  (_encoder): BEVSpeedConvEncoder(
    (_relu): ReLU()
    (_model): Sequential(
      (0): Conv2d(5, 64, kernel_size=(3, 3), stride=(2, 2))
      (1): ReLU()
      (2): Conv2d(64, 128, kernel_size=(3, 3), stride=(2, 2))
      (3): ReLU()
      (4): Conv2d(128, 256, kernel_size=(3, 3), stride=(2, 2))
      (5): ReLU()
      (6): Flatten(start_dim=1, end_dim=-1)
    )
    (_mid): Linear(in_features=2304, out_features=256, bias=True)
  )
  (_head): DuelingHead(
    (A): Sequential(
      (0): Sequential(
        (0): Linear(in_features=512, out_features=512, bias=True)
        (1): ReLU()
      )
      (1): Sequential(
        (0): Linear(in_features=512, out_features=21, bias=True)
      )
    )
    (V): Sequential(
      (0): Sequential(
        (0): Linear(in_features=512, out_features=512, bias=True)
        (1): ReLU()
      )
      (1): Sequential(
        (0): Linear(in_features=512, out_features=1, bias=True)
      )
    )
  )
)
[2022-03-15 16:28:33,822][base_learner.py][line: 333][    INFO] [RANK0]: DI-engine DRL Policy
DQNRLModel(
  (_encoder): BEVSpeedConvEncoder(
    (_relu): ReLU()
    (_model): Sequential(
      (0): Conv2d(5, 64, kernel_size=(3, 3), stride=(2, 2))
      (1): ReLU()
      (2): Conv2d(64, 128, kernel_size=(3, 3), stride=(2, 2))
      (3): ReLU()
      (4): Conv2d(128, 256, kernel_size=(3, 3), stride=(2, 2))
      (5): ReLU()
      (6): Flatten(start_dim=1, end_dim=-1)
    )
    (_mid): Linear(in_features=2304, out_features=256, bias=True)
  )
  (_head): DuelingHead(
    (A): Sequential(
      (0): Sequential(
        (0): Linear(in_features=512, out_features=512, bias=True)
        (1): ReLU()
      )
      (1): Sequential(
        (0): Linear(in_features=512, out_features=21, bias=True)
      )
    )
    (V): Sequential(
      (0): Sequential(
        (0): Linear(in_features=512, out_features=512, bias=True)
        (1): ReLU()
      )
      (1): Sequential(
        (0): Linear(in_features=512, out_features=1, bias=True)
      )
    )
  )
)
[2022-03-15 16:32:44,122][base_learner.py][line: 333][    INFO] [RANK0]: DI-engine DRL Policy
DQNRLModel(
  (_encoder): BEVSpeedConvEncoder(
    (_relu): ReLU()
    (_model): Sequential(
      (0): Conv2d(5, 64, kernel_size=(3, 3), stride=(2, 2))
      (1): ReLU()
      (2): Conv2d(64, 128, kernel_size=(3, 3), stride=(2, 2))
      (3): ReLU()
      (4): Conv2d(128, 256, kernel_size=(3, 3), stride=(2, 2))
      (5): ReLU()
      (6): Flatten(start_dim=1, end_dim=-1)
    )
    (_mid): Linear(in_features=2304, out_features=256, bias=True)
  )
  (_head): DuelingHead(
    (A): Sequential(
      (0): Sequential(
        (0): Linear(in_features=512, out_features=512, bias=True)
        (1): ReLU()
      )
      (1): Sequential(
        (0): Linear(in_features=512, out_features=21, bias=True)
      )
    )
    (V): Sequential(
      (0): Sequential(
        (0): Linear(in_features=512, out_features=512, bias=True)
        (1): ReLU()
      )
      (1): Sequential(
        (0): Linear(in_features=512, out_features=1, bias=True)
      )
    )
  )
)
[2022-03-15 16:37:29,015][base_learner.py][line: 333][    INFO] [RANK0]: DI-engine DRL Policy
DQNRLModel(
  (_encoder): BEVSpeedConvEncoder(
    (_relu): ReLU()
    (_model): Sequential(
      (0): Conv2d(5, 64, kernel_size=(3, 3), stride=(2, 2))
      (1): ReLU()
      (2): Conv2d(64, 128, kernel_size=(3, 3), stride=(2, 2))
      (3): ReLU()
      (4): Conv2d(128, 256, kernel_size=(3, 3), stride=(2, 2))
      (5): ReLU()
      (6): Flatten(start_dim=1, end_dim=-1)
    )
    (_mid): Linear(in_features=2304, out_features=256, bias=True)
  )
  (_head): DuelingHead(
    (A): Sequential(
      (0): Sequential(
        (0): Linear(in_features=512, out_features=512, bias=True)
        (1): ReLU()
      )
      (1): Sequential(
        (0): Linear(in_features=512, out_features=21, bias=True)
      )
    )
    (V): Sequential(
      (0): Sequential(
        (0): Linear(in_features=512, out_features=512, bias=True)
        (1): ReLU()
      )
      (1): Sequential(
        (0): Linear(in_features=512, out_features=1, bias=True)
      )
    )
  )
)
[2022-03-15 16:40:12,430][base_learner.py][line: 333][    INFO] [RANK0]: DI-engine DRL Policy
DQNRLModel(
  (_encoder): BEVSpeedConvEncoder(
    (_relu): ReLU()
    (_model): Sequential(
      (0): Conv2d(5, 64, kernel_size=(3, 3), stride=(2, 2))
      (1): ReLU()
      (2): Conv2d(64, 128, kernel_size=(3, 3), stride=(2, 2))
      (3): ReLU()
      (4): Conv2d(128, 256, kernel_size=(3, 3), stride=(2, 2))
      (5): ReLU()
      (6): Flatten(start_dim=1, end_dim=-1)
    )
    (_mid): Linear(in_features=2304, out_features=256, bias=True)
  )
  (_head): DuelingHead(
    (A): Sequential(
      (0): Sequential(
        (0): Linear(in_features=512, out_features=512, bias=True)
        (1): ReLU()
      )
      (1): Sequential(
        (0): Linear(in_features=512, out_features=21, bias=True)
      )
    )
    (V): Sequential(
      (0): Sequential(
        (0): Linear(in_features=512, out_features=512, bias=True)
        (1): ReLU()
      )
      (1): Sequential(
        (0): Linear(in_features=512, out_features=1, bias=True)
      )
    )
  )
)
[2022-03-15 16:41:59,418][base_learner.py][line: 333][    INFO] [RANK0]: DI-engine DRL Policy
DQNRLModel(
  (_encoder): BEVSpeedConvEncoder(
    (_relu): ReLU()
    (_model): Sequential(
      (0): Conv2d(5, 64, kernel_size=(3, 3), stride=(2, 2))
      (1): ReLU()
      (2): Conv2d(64, 128, kernel_size=(3, 3), stride=(2, 2))
      (3): ReLU()
      (4): Conv2d(128, 256, kernel_size=(3, 3), stride=(2, 2))
      (5): ReLU()
      (6): Flatten(start_dim=1, end_dim=-1)
    )
    (_mid): Linear(in_features=2304, out_features=256, bias=True)
  )
  (_head): DuelingHead(
    (A): Sequential(
      (0): Sequential(
        (0): Linear(in_features=512, out_features=512, bias=True)
        (1): ReLU()
      )
      (1): Sequential(
        (0): Linear(in_features=512, out_features=21, bias=True)
      )
    )
    (V): Sequential(
      (0): Sequential(
        (0): Linear(in_features=512, out_features=512, bias=True)
        (1): ReLU()
      )
      (1): Sequential(
        (0): Linear(in_features=512, out_features=1, bias=True)
      )
    )
  )
)
[2022-03-15 16:42:17,841][base_learner.py][line: 333][    INFO] [RANK0]: DI-engine DRL Policy
DQNRLModel(
  (_encoder): BEVSpeedConvEncoder(
    (_relu): ReLU()
    (_model): Sequential(
      (0): Conv2d(5, 64, kernel_size=(3, 3), stride=(2, 2))
      (1): ReLU()
      (2): Conv2d(64, 128, kernel_size=(3, 3), stride=(2, 2))
      (3): ReLU()
      (4): Conv2d(128, 256, kernel_size=(3, 3), stride=(2, 2))
      (5): ReLU()
      (6): Flatten(start_dim=1, end_dim=-1)
    )
    (_mid): Linear(in_features=2304, out_features=256, bias=True)
  )
  (_head): DuelingHead(
    (A): Sequential(
      (0): Sequential(
        (0): Linear(in_features=512, out_features=512, bias=True)
        (1): ReLU()
      )
      (1): Sequential(
        (0): Linear(in_features=512, out_features=21, bias=True)
      )
    )
    (V): Sequential(
      (0): Sequential(
        (0): Linear(in_features=512, out_features=512, bias=True)
        (1): ReLU()
      )
      (1): Sequential(
        (0): Linear(in_features=512, out_features=1, bias=True)
      )
    )
  )
)
[2022-03-15 16:51:10,070][base_learner.py][line: 333][    INFO] [RANK0]: DI-engine DRL Policy
DQNRLModel(
  (_encoder): BEVSpeedConvEncoder(
    (_relu): ReLU()
    (_model): Sequential(
      (0): Conv2d(5, 64, kernel_size=(3, 3), stride=(2, 2))
      (1): ReLU()
      (2): Conv2d(64, 128, kernel_size=(3, 3), stride=(2, 2))
      (3): ReLU()
      (4): Conv2d(128, 256, kernel_size=(3, 3), stride=(2, 2))
      (5): ReLU()
      (6): Flatten(start_dim=1, end_dim=-1)
    )
    (_mid): Linear(in_features=2304, out_features=256, bias=True)
  )
  (_head): DuelingHead(
    (A): Sequential(
      (0): Sequential(
        (0): Linear(in_features=512, out_features=512, bias=True)
        (1): ReLU()
      )
      (1): Sequential(
        (0): Linear(in_features=512, out_features=21, bias=True)
      )
    )
    (V): Sequential(
      (0): Sequential(
        (0): Linear(in_features=512, out_features=512, bias=True)
        (1): ReLU()
      )
      (1): Sequential(
        (0): Linear(in_features=512, out_features=1, bias=True)
      )
    )
  )
)
[2022-03-15 16:57:34,578][base_learner.py][line: 333][    INFO] [RANK0]: DI-engine DRL Policy
DQNRLModel(
  (_encoder): BEVSpeedConvEncoder(
    (_relu): ReLU()
    (_model): Sequential(
      (0): Conv2d(5, 64, kernel_size=(3, 3), stride=(2, 2))
      (1): ReLU()
      (2): Conv2d(64, 128, kernel_size=(3, 3), stride=(2, 2))
      (3): ReLU()
      (4): Conv2d(128, 256, kernel_size=(3, 3), stride=(2, 2))
      (5): ReLU()
      (6): Flatten(start_dim=1, end_dim=-1)
    )
    (_mid): Linear(in_features=2304, out_features=256, bias=True)
  )
  (_head): DuelingHead(
    (A): Sequential(
      (0): Sequential(
        (0): Linear(in_features=512, out_features=512, bias=True)
        (1): ReLU()
      )
      (1): Sequential(
        (0): Linear(in_features=512, out_features=21, bias=True)
      )
    )
    (V): Sequential(
      (0): Sequential(
        (0): Linear(in_features=512, out_features=512, bias=True)
        (1): ReLU()
      )
      (1): Sequential(
        (0): Linear(in_features=512, out_features=1, bias=True)
      )
    )
  )
)
[2022-03-15 16:58:21,158][base_learner.py][line: 333][    INFO] [RANK0]: DI-engine DRL Policy
DQNRLModel(
  (_encoder): BEVSpeedConvEncoder(
    (_relu): ReLU()
    (_model): Sequential(
      (0): Conv2d(5, 64, kernel_size=(3, 3), stride=(2, 2))
      (1): ReLU()
      (2): Conv2d(64, 128, kernel_size=(3, 3), stride=(2, 2))
      (3): ReLU()
      (4): Conv2d(128, 256, kernel_size=(3, 3), stride=(2, 2))
      (5): ReLU()
      (6): Flatten(start_dim=1, end_dim=-1)
    )
    (_mid): Linear(in_features=2304, out_features=256, bias=True)
  )
  (_head): DuelingHead(
    (A): Sequential(
      (0): Sequential(
        (0): Linear(in_features=512, out_features=512, bias=True)
        (1): ReLU()
      )
      (1): Sequential(
        (0): Linear(in_features=512, out_features=21, bias=True)
      )
    )
    (V): Sequential(
      (0): Sequential(
        (0): Linear(in_features=512, out_features=512, bias=True)
        (1): ReLU()
      )
      (1): Sequential(
        (0): Linear(in_features=512, out_features=1, bias=True)
      )
    )
  )
)
[2022-03-15 21:05:33,148][base_learner.py][line: 333][    INFO] [RANK0]: DI-engine DRL Policy
DQNRLModel(
  (_encoder): BEVSpeedConvEncoder(
    (_relu): ReLU()
    (_model): Sequential(
      (0): Conv2d(5, 64, kernel_size=(3, 3), stride=(2, 2))
      (1): ReLU()
      (2): Conv2d(64, 128, kernel_size=(3, 3), stride=(2, 2))
      (3): ReLU()
      (4): Conv2d(128, 256, kernel_size=(3, 3), stride=(2, 2))
      (5): ReLU()
      (6): Flatten(start_dim=1, end_dim=-1)
    )
    (_mid): Linear(in_features=2304, out_features=256, bias=True)
  )
  (_head): DuelingHead(
    (A): Sequential(
      (0): Sequential(
        (0): Linear(in_features=512, out_features=512, bias=True)
        (1): ReLU()
      )
      (1): Sequential(
        (0): Linear(in_features=512, out_features=21, bias=True)
      )
    )
    (V): Sequential(
      (0): Sequential(
        (0): Linear(in_features=512, out_features=512, bias=True)
        (1): ReLU()
      )
      (1): Sequential(
        (0): Linear(in_features=512, out_features=1, bias=True)
      )
    )
  )
)
[2022-03-15 21:07:38,164][base_learner.py][line: 333][    INFO] [RANK0]: DI-engine DRL Policy
DQNRLModel(
  (_encoder): BEVSpeedConvEncoder(
    (_relu): ReLU()
    (_model): Sequential(
      (0): Conv2d(5, 64, kernel_size=(3, 3), stride=(2, 2))
      (1): ReLU()
      (2): Conv2d(64, 128, kernel_size=(3, 3), stride=(2, 2))
      (3): ReLU()
      (4): Conv2d(128, 256, kernel_size=(3, 3), stride=(2, 2))
      (5): ReLU()
      (6): Flatten(start_dim=1, end_dim=-1)
    )
    (_mid): Linear(in_features=2304, out_features=256, bias=True)
  )
  (_head): DuelingHead(
    (A): Sequential(
      (0): Sequential(
        (0): Linear(in_features=512, out_features=512, bias=True)
        (1): ReLU()
      )
      (1): Sequential(
        (0): Linear(in_features=512, out_features=21, bias=True)
      )
    )
    (V): Sequential(
      (0): Sequential(
        (0): Linear(in_features=512, out_features=512, bias=True)
        (1): ReLU()
      )
      (1): Sequential(
        (0): Linear(in_features=512, out_features=1, bias=True)
      )
    )
  )
)
[2022-03-15 21:08:02,170][base_learner.py][line: 333][    INFO] [RANK0]: DI-engine DRL Policy
DQNRLModel(
  (_encoder): BEVSpeedConvEncoder(
    (_relu): ReLU()
    (_model): Sequential(
      (0): Conv2d(5, 64, kernel_size=(3, 3), stride=(2, 2))
      (1): ReLU()
      (2): Conv2d(64, 128, kernel_size=(3, 3), stride=(2, 2))
      (3): ReLU()
      (4): Conv2d(128, 256, kernel_size=(3, 3), stride=(2, 2))
      (5): ReLU()
      (6): Flatten(start_dim=1, end_dim=-1)
    )
    (_mid): Linear(in_features=2304, out_features=256, bias=True)
  )
  (_head): DuelingHead(
    (A): Sequential(
      (0): Sequential(
        (0): Linear(in_features=512, out_features=512, bias=True)
        (1): ReLU()
      )
      (1): Sequential(
        (0): Linear(in_features=512, out_features=21, bias=True)
      )
    )
    (V): Sequential(
      (0): Sequential(
        (0): Linear(in_features=512, out_features=512, bias=True)
        (1): ReLU()
      )
      (1): Sequential(
        (0): Linear(in_features=512, out_features=1, bias=True)
      )
    )
  )
)
[2022-03-15 21:08:34,375][base_learner.py][line: 333][    INFO] [RANK0]: DI-engine DRL Policy
DQNRLModel(
  (_encoder): BEVSpeedConvEncoder(
    (_relu): ReLU()
    (_model): Sequential(
      (0): Conv2d(5, 64, kernel_size=(3, 3), stride=(2, 2))
      (1): ReLU()
      (2): Conv2d(64, 128, kernel_size=(3, 3), stride=(2, 2))
      (3): ReLU()
      (4): Conv2d(128, 256, kernel_size=(3, 3), stride=(2, 2))
      (5): ReLU()
      (6): Flatten(start_dim=1, end_dim=-1)
    )
    (_mid): Linear(in_features=2304, out_features=256, bias=True)
  )
  (_head): DuelingHead(
    (A): Sequential(
      (0): Sequential(
        (0): Linear(in_features=512, out_features=512, bias=True)
        (1): ReLU()
      )
      (1): Sequential(
        (0): Linear(in_features=512, out_features=21, bias=True)
      )
    )
    (V): Sequential(
      (0): Sequential(
        (0): Linear(in_features=512, out_features=512, bias=True)
        (1): ReLU()
      )
      (1): Sequential(
        (0): Linear(in_features=512, out_features=1, bias=True)
      )
    )
  )
)
[2022-03-15 21:13:24,729][base_learner.py][line: 333][    INFO] [RANK0]: DI-engine DRL Policy
DQNRLModel(
  (_encoder): BEVSpeedConvEncoder(
    (_relu): ReLU()
    (_model): Sequential(
      (0): Conv2d(5, 64, kernel_size=(3, 3), stride=(2, 2))
      (1): ReLU()
      (2): Conv2d(64, 128, kernel_size=(3, 3), stride=(2, 2))
      (3): ReLU()
      (4): Conv2d(128, 256, kernel_size=(3, 3), stride=(2, 2))
      (5): ReLU()
      (6): Flatten(start_dim=1, end_dim=-1)
    )
    (_mid): Linear(in_features=2304, out_features=256, bias=True)
  )
  (_head): DuelingHead(
    (A): Sequential(
      (0): Sequential(
        (0): Linear(in_features=512, out_features=512, bias=True)
        (1): ReLU()
      )
      (1): Sequential(
        (0): Linear(in_features=512, out_features=21, bias=True)
      )
    )
    (V): Sequential(
      (0): Sequential(
        (0): Linear(in_features=512, out_features=512, bias=True)
        (1): ReLU()
      )
      (1): Sequential(
        (0): Linear(in_features=512, out_features=1, bias=True)
      )
    )
  )
)
[2022-03-22 12:17:43,270][base_learner.py][line: 333][    INFO] [RANK0]: DI-engine DRL Policy
DQNRLModel(
  (_encoder): BEVSpeedConvEncoder(
    (_relu): ReLU()
    (_model): Sequential(
      (0): Conv2d(5, 64, kernel_size=(3, 3), stride=(2, 2))
      (1): ReLU()
      (2): Conv2d(64, 128, kernel_size=(3, 3), stride=(2, 2))
      (3): ReLU()
      (4): Conv2d(128, 256, kernel_size=(3, 3), stride=(2, 2))
      (5): ReLU()
      (6): Flatten(start_dim=1, end_dim=-1)
    )
    (_mid): Linear(in_features=2304, out_features=256, bias=True)
  )
  (_head): DuelingHead(
    (A): Sequential(
      (0): Sequential(
        (0): Linear(in_features=512, out_features=512, bias=True)
        (1): ReLU()
      )
      (1): Sequential(
        (0): Linear(in_features=512, out_features=21, bias=True)
      )
    )
    (V): Sequential(
      (0): Sequential(
        (0): Linear(in_features=512, out_features=512, bias=True)
        (1): ReLU()
      )
      (1): Sequential(
        (0): Linear(in_features=512, out_features=1, bias=True)
      )
    )
  )
)
[2022-03-22 12:18:56,004][base_learner.py][line: 333][    INFO] [RANK0]: DI-engine DRL Policy
DQNRLModel(
  (_encoder): BEVSpeedConvEncoder(
    (_relu): ReLU()
    (_model): Sequential(
      (0): Conv2d(5, 64, kernel_size=(3, 3), stride=(2, 2))
      (1): ReLU()
      (2): Conv2d(64, 128, kernel_size=(3, 3), stride=(2, 2))
      (3): ReLU()
      (4): Conv2d(128, 256, kernel_size=(3, 3), stride=(2, 2))
      (5): ReLU()
      (6): Flatten(start_dim=1, end_dim=-1)
    )
    (_mid): Linear(in_features=2304, out_features=256, bias=True)
  )
  (_head): DuelingHead(
    (A): Sequential(
      (0): Sequential(
        (0): Linear(in_features=512, out_features=512, bias=True)
        (1): ReLU()
      )
      (1): Sequential(
        (0): Linear(in_features=512, out_features=21, bias=True)
      )
    )
    (V): Sequential(
      (0): Sequential(
        (0): Linear(in_features=512, out_features=512, bias=True)
        (1): ReLU()
      )
      (1): Sequential(
        (0): Linear(in_features=512, out_features=1, bias=True)
      )
    )
  )
)
[2022-03-22 12:29:22,229][base_learner.py][line: 333][    INFO] [RANK0]: DI-engine DRL Policy
DQNRLModel(
  (_encoder): BEVSpeedConvEncoder(
    (_relu): ReLU()
    (_model): Sequential(
      (0): Conv2d(5, 64, kernel_size=(3, 3), stride=(2, 2))
      (1): ReLU()
      (2): Conv2d(64, 128, kernel_size=(3, 3), stride=(2, 2))
      (3): ReLU()
      (4): Conv2d(128, 256, kernel_size=(3, 3), stride=(2, 2))
      (5): ReLU()
      (6): Flatten(start_dim=1, end_dim=-1)
    )
    (_mid): Linear(in_features=2304, out_features=256, bias=True)
  )
  (_head): DuelingHead(
    (A): Sequential(
      (0): Sequential(
        (0): Linear(in_features=512, out_features=512, bias=True)
        (1): ReLU()
      )
      (1): Sequential(
        (0): Linear(in_features=512, out_features=21, bias=True)
      )
    )
    (V): Sequential(
      (0): Sequential(
        (0): Linear(in_features=512, out_features=512, bias=True)
        (1): ReLU()
      )
      (1): Sequential(
        (0): Linear(in_features=512, out_features=1, bias=True)
      )
    )
  )
)
[2022-03-22 12:29:43,096][base_learner.py][line: 333][    INFO] [RANK0]: DI-engine DRL Policy
DQNRLModel(
  (_encoder): BEVSpeedConvEncoder(
    (_relu): ReLU()
    (_model): Sequential(
      (0): Conv2d(5, 64, kernel_size=(3, 3), stride=(2, 2))
      (1): ReLU()
      (2): Conv2d(64, 128, kernel_size=(3, 3), stride=(2, 2))
      (3): ReLU()
      (4): Conv2d(128, 256, kernel_size=(3, 3), stride=(2, 2))
      (5): ReLU()
      (6): Flatten(start_dim=1, end_dim=-1)
    )
    (_mid): Linear(in_features=2304, out_features=256, bias=True)
  )
  (_head): DuelingHead(
    (A): Sequential(
      (0): Sequential(
        (0): Linear(in_features=512, out_features=512, bias=True)
        (1): ReLU()
      )
      (1): Sequential(
        (0): Linear(in_features=512, out_features=21, bias=True)
      )
    )
    (V): Sequential(
      (0): Sequential(
        (0): Linear(in_features=512, out_features=512, bias=True)
        (1): ReLU()
      )
      (1): Sequential(
        (0): Linear(in_features=512, out_features=1, bias=True)
      )
    )
  )
)
[2022-03-22 12:32:58,374][base_learner.py][line: 333][    INFO] [RANK0]: DI-engine DRL Policy
DQNRLModel(
  (_encoder): BEVSpeedConvEncoder(
    (_relu): ReLU()
    (_model): Sequential(
      (0): Conv2d(5, 64, kernel_size=(3, 3), stride=(2, 2))
      (1): ReLU()
      (2): Conv2d(64, 128, kernel_size=(3, 3), stride=(2, 2))
      (3): ReLU()
      (4): Conv2d(128, 256, kernel_size=(3, 3), stride=(2, 2))
      (5): ReLU()
      (6): Flatten(start_dim=1, end_dim=-1)
    )
    (_mid): Linear(in_features=2304, out_features=256, bias=True)
  )
  (_head): DuelingHead(
    (A): Sequential(
      (0): Sequential(
        (0): Linear(in_features=512, out_features=512, bias=True)
        (1): ReLU()
      )
      (1): Sequential(
        (0): Linear(in_features=512, out_features=21, bias=True)
      )
    )
    (V): Sequential(
      (0): Sequential(
        (0): Linear(in_features=512, out_features=512, bias=True)
        (1): ReLU()
      )
      (1): Sequential(
        (0): Linear(in_features=512, out_features=1, bias=True)
      )
    )
  )
)
[2022-03-22 12:36:49,096][base_learner.py][line: 333][    INFO] [RANK0]: DI-engine DRL Policy
DQNRLModel(
  (_encoder): BEVSpeedConvEncoder(
    (_relu): ReLU()
    (_model): Sequential(
      (0): Conv2d(5, 64, kernel_size=(3, 3), stride=(2, 2))
      (1): ReLU()
      (2): Conv2d(64, 128, kernel_size=(3, 3), stride=(2, 2))
      (3): ReLU()
      (4): Conv2d(128, 256, kernel_size=(3, 3), stride=(2, 2))
      (5): ReLU()
      (6): Flatten(start_dim=1, end_dim=-1)
    )
    (_mid): Linear(in_features=2304, out_features=256, bias=True)
  )
  (_head): DuelingHead(
    (A): Sequential(
      (0): Sequential(
        (0): Linear(in_features=512, out_features=512, bias=True)
        (1): ReLU()
      )
      (1): Sequential(
        (0): Linear(in_features=512, out_features=21, bias=True)
      )
    )
    (V): Sequential(
      (0): Sequential(
        (0): Linear(in_features=512, out_features=512, bias=True)
        (1): ReLU()
      )
      (1): Sequential(
        (0): Linear(in_features=512, out_features=1, bias=True)
      )
    )
  )
)
[2022-03-22 12:44:14,375][base_learner.py][line: 333][    INFO] [RANK0]: DI-engine DRL Policy
DQNRLModel(
  (_encoder): BEVSpeedConvEncoder(
    (_relu): ReLU()
    (_model): Sequential(
      (0): Conv2d(5, 64, kernel_size=(3, 3), stride=(2, 2))
      (1): ReLU()
      (2): Conv2d(64, 128, kernel_size=(3, 3), stride=(2, 2))
      (3): ReLU()
      (4): Conv2d(128, 256, kernel_size=(3, 3), stride=(2, 2))
      (5): ReLU()
      (6): Flatten(start_dim=1, end_dim=-1)
    )
    (_mid): Linear(in_features=2304, out_features=256, bias=True)
  )
  (_head): DuelingHead(
    (A): Sequential(
      (0): Sequential(
        (0): Linear(in_features=512, out_features=512, bias=True)
        (1): ReLU()
      )
      (1): Sequential(
        (0): Linear(in_features=512, out_features=21, bias=True)
      )
    )
    (V): Sequential(
      (0): Sequential(
        (0): Linear(in_features=512, out_features=512, bias=True)
        (1): ReLU()
      )
      (1): Sequential(
        (0): Linear(in_features=512, out_features=1, bias=True)
      )
    )
  )
)
[2022-03-22 16:52:11,500][base_learner.py][line: 333][    INFO] [RANK0]: DI-engine DRL Policy
DQNRLModel(
  (_encoder): BEVSpeedConvEncoder(
    (_relu): ReLU()
    (_model): Sequential(
      (0): Conv2d(5, 64, kernel_size=(3, 3), stride=(2, 2))
      (1): ReLU()
      (2): Conv2d(64, 128, kernel_size=(3, 3), stride=(2, 2))
      (3): ReLU()
      (4): Conv2d(128, 256, kernel_size=(3, 3), stride=(2, 2))
      (5): ReLU()
      (6): Flatten(start_dim=1, end_dim=-1)
    )
    (_mid): Linear(in_features=2304, out_features=256, bias=True)
  )
  (_head): DuelingHead(
    (A): Sequential(
      (0): Sequential(
        (0): Linear(in_features=512, out_features=512, bias=True)
        (1): ReLU()
      )
      (1): Sequential(
        (0): Linear(in_features=512, out_features=21, bias=True)
      )
    )
    (V): Sequential(
      (0): Sequential(
        (0): Linear(in_features=512, out_features=512, bias=True)
        (1): ReLU()
      )
      (1): Sequential(
        (0): Linear(in_features=512, out_features=1, bias=True)
      )
    )
  )
)
[2022-03-22 16:58:42,863][base_learner.py][line: 333][    INFO] [RANK0]: === Training Iteration 0 Result ===
[2022-03-22 16:58:42,864][learner_hook.py][line: 224][    INFO] 
+-------+------------+----------------+
| Name  | cur_lr_avg | total_loss_avg |
+-------+------------+----------------+
| Value | 0.000100   | 0.598962       |
+-------+------------+----------------+
…
